Python_Pipeline/codes_emu/seeg_analysis_suite/ai/rasternet/models/rasternet_3_150.pt (torch, 365392 bytes, 4 tensors)

linear1.weight f4 [200, 450]
00000000: f82d 263d 9162 1cbd 68a5 463d e599 89bd
00000010: 6401 87bb 0305 d1bd 5001 5b3c c92e 993d
00000020: 8af0 e83c a53d ca3c 58b3 53bd 7238 1abd
00000030: b496 1bbc 332d 3e3d 416d 0b3d 129b 863d
00000040: 7cc0 7f3d f8f5 bdbc 4a0b 1ebc 3725 703d
00000050: 1db9 81bd 9668 8d3d ec20 68bc 9b84 5dbc
00000060: d169 a53d aa0c 04bd ce0f 253c 261b 87bc
00000070: 7ff2 36bd 84a7 b73d e5f6 a1bd 7ea3 aabb
00000080: f808 5dbd 10fc 00bd 7bf8 f9bd 9fde 893d
00000090: 942d 0ebd 61b9 423d f281 d63a 90d0 5f3d
000000a0: 3a06 30bd d722 01bd d5b9 00bc a219 acbd
000000b0: 709e 84bc 276f 55bd 0af8 f63c 1b5c aabd
000000c0: 9f9f 033d f584 7cbd 346f 88bd 09d0 00bd
000000d0: b47d debc cf82 a9bd 347d 7e3c 3bed 37bd
000000e0: d986 8c3d ef6a 813d 1a40 d9bc 0ed6 5c3d
000000f0: 1937 0e3d 6bcf 96bd e78c 9a3d b706 163d
00000100: d8a9 bb3d 76d8 ee3d 1374 1b3e f534 743d
00000110: ed4d 0bbd 8a65 0c3e 604c 883d a846 903d
00000120: 643c debc 3aed c53d 084c 5e3d a0bd 60bd
00000130: 39ae fc3c 0582 103d 6685 2d3d 9bbe 383c
00000140: 7fec 143e 31ff 93bc 8468 313d af42 483d
00000150: e435 283c 6559 05bd 60a1 8c3d c69b e43d
00000160: 313a 14bd 58d9 983d d43e 82b9 7d36 42bc
00000170: 57b0 88bc da46 e0bc 3bfc 36bb d9cd 4c3d
00000180: 2b71 dc3c 91f0 3b3d 1b44 90bc 870f 543d
00000190: ef13 83bd 6abd 523d c20a 2f3d 01f8 39bd
000001a0: 087e c8bc a37b 5a3c 6e52 2bbc 9e35 ddbb
000001b0: b81e 0dba eb41 68bd 0b17 a6bd 2053 5dbd
000001c0: 738f c23c 5905 90bc b7cb 153e 80e9 883d
000001d0: 859d 4c3d 8d3a 353c dfa7 89bd 2fa8 6fbd
000001e0: aeaa 403b edd9 30bd 1998 03bd 06e8 313d
000001f0: 22e5 d0bd 4d58 85bb 8d89 2c3d 831e 4b3d
00000200: 288e f33c f905 123e cf25 d13b 2a30 5cbc
00000210: ad39 4a3c 02f0 f83c b6fc bcbc b9a1 17bd
00000220: 67b0 a1bd f3f1 31bc 8a9a 823c 2d50 b73d
00000230: 157b 18bd 0b6d 083e 4c17 833d 1fc0 08be
00000240: 081a cebd 763c 703d 7a6c cbbc 41f4 d839
00000250: 95df 8fbd fb25 2abd 85d0 af3d 5873 a2bc
00000260: 0f07 303d 6a5d 09be 45d1 00bc a4fe 0f3d
00000270: d7ef e03a 7437 b4bd 037f 163c 4708 1fbd
00000280: 0dbc 443d 6113 c2bd 1586 183d 0825 843d
00000290: ae38 a0bd d7c9 52bd 18e7 afbc 6f7b 9a3c
000002a0: d116 903c 7002 05bd 8815 d5bd d29e bc3d
000002b0: ed1b 423d ac30 b43d 279c 763d 769d 30bd
000002c0: f33c f0bc 7b72 263d 28b6 2dbc 17c0 a6bd
000002d0: 3a44 10be f059 513d 1c33 2f3c 6253 08bd
000002e0: 2202 11bd df05 9fbc dd8d 2ebd 3033 4d3e
000002f0: 4412 483b 4e8b 50bc b9ef f0bc f753 b2bc
00000300: cc2f e03d 1fa5 463d 2671 b33c d102 2dbb
00000310: 07d2 773d c4c9 c9bd a0f4 1ebe 1ea3 dabd
00000320: f3f9 8d3d 458a 8dbd 783a c1bd 2f50 fabc
00000330: d082 b4bc 76e9 143d 6b6e 9fbd 7bab 793c
00000340: 700d 783d 1591 d1bb 83d8 233d 4ec5 923d
00000350: a107 703d 6a48 8f3d c255 9a3d dc6c c43d
00000360: 198f 0b3d 3cca 1d3c f268 db3b 6666 d43c
00000370: 2449 82bd 4cba c63c 922b 12bd 3cfa 623d
00000380: 630f c93d 4836 61bd de0f e4bb bce9 cbbd
00000390: 778a a13d 3ef3 9f3c c261 063c 66ef 43bd
000003a0: 0a4c 8fbd 3d16 8b3d dd5a 7c3d cb2e d03c
000003b0: 8dc5 d73d a402 663d 733a e43a b73f b3bc
000003c0: 515e dbbd 8464 b2bc 87b2 91bc 6ec5 acbc
000003d0: fb1e 863d 2db2 403c a1c7 963c 9c23 4abc
000003e0: 70ee c03c 8388 b63b 5a80 4dbd 0be3 6b3c
000003f0: b520 03b9 629d 0dbd e2ac 2bbe fdc0 cbbc
0.040571183 -0.038179938 0.048497587 -0.06718806 -0.004120039 -0.10206034 0.013367012 0.07479627
0.02843501 0.024687598 -0.051684707 -0.037651487 -0.00949638 0.046429824 0.03403974 0.06572546
0.062439427 -0.023188576 -0.009646246 0.05862924 -0.06334136 0.06904714 -0.014168005 -0.013520385
0.080768235 -0.03223864 0.010074569 -0.016492438 -0.044664856 0.08967498 -0.079084195 -0.005207478
-0.05396363 -0.031490386 -0.12205597 0.06731915 -0.034711435 0.047540072 0.0016365631 0.05464226
-0.042974688 -0.031527366 -0.007856806 -0.084033266 -0.01618883 -0.052107956 0.030147571 -0.08318349
0.03213465 -0.061650235 -0.06661835 -0.031448398 -0.02715955 -0.08276903 0.01553278 -0.044903975
0.06861658 0.06319224 -0.026519824 0.053915076 0.034720514 -0.073637806 0.07546406 0.036627498
0.091632545 0.116623804 0.15180998 0.059620816 -0.034009863 0.13710609 0.066551924 0.070447266
-0.027128406 0.09664388 0.054271728 -0.05486834 0.030844795 0.035280246 0.042363547 0.011275913
0.14543341 -0.01806602 0.043312564 0.04889172 0.010266755 -0.032555956 0.06866717 0.11162524
-0.03618831 0.0746333 -0.00024842343 -0.011853811 -0.016685648 -0.027377535 -0.0027921337 0.050001
0.026909431 0.04588372 -0.0176106 0.05177262 -0.064002864 0.05145017 0.04273487 -0.04540253
-0.024474159 0.013335141 -0.0104566645 -0.0067507764 -0.00053833006 -0.05670349 -0.08109864 -0.054034352
0.023750043 -0.017580675 0.14628492 0.066851616 0.04995491 0.011061323 -0.06721472 -0.05851
0.0029398608 -0.04317658 -0.032127474 0.043434165 -0.101999536 -0.004069364 0.042123366 0.049589645
0.029730871 0.14260091 0.006382681 -0.013439218 0.012342853 0.030387882 -0.02306972 -0.037019465
-0.07894974 -0.010860908 0.01594283 0.08950839 -0.037226755 0.13322847 0.06400928 -0.13354538
-0.10063559 0.05865141 -0.024832 0.00041380714 -0.07025067 -0.041540127 0.08584694 -0.01983039
0.04297548 -0.13414541 -0.007862394 0.035154954 0.0017161322 -0.08799639 0.009185555 -0.038826253
0.0480309 -0.094763525 0.037237246 0.06452376 -0.07823311 -0.05146202 -0.021472499 0.018857686
0.017589005 -0.032473028 -0.104044974 0.0920998 0.047389913 0.08798346 0.060207512 -0.043118916
-0.029325938 0.04063652 -0.010602511 -0.08142107 -0.14088526 0.05111116 0.010693338 -0.033282645
-0.035402425 -0.01941198 -0.04261576 0.20039058 0.0030528465 -0.012728525 -0.029411184 -0.021768553
0.109466165 0.048497315 0.02190454 -0.0026399384 0.060503032 -0.09852937 -0.15523005 -0.106756434
0.0693244 -0.069111384 -0.0943498 -0.030555813 -0.022035033 0.03635546 -0.077847324 0.015238638
0.06055969 -0.006395469 0.040001404 0.07166539 0.058601025 0.06996234 0.07535888 0.09591076
0.034072015 0.009630736 0.00669586 0.025927734 -0.06361607 0.024258755 -0.035686083 0.055414423
0.09817388 -0.054983407 -0.0069598993 -0.09956691 0.07887738 0.019525167 0.008202018 -0.04783573
-0.06996925 0.06791351 0.06161009 0.025412938 0.10535727 0.056154862 0.0017412439 -0.021880968
-0.10711349 -0.021776445 -0.017785324 -0.021090236 0.06548878 0.01176123 0.018405737 -0.0123375915
0.023551196 0.0055704727 -0.050171234 0.014397393 -0.00012505318 -0.03457392 -0.16765168 -0.024872297

linear1.bias f4 [200]
00000000: b041 393e 167f 15be 20cb 04bd 903b 453e
00000010: 623b e5bd 3cb9 b53e 9345 bb3e 98e8 dcbd
00000020: 2803 0cbe a087 e33b 34d2 503e ea7c 06be
00000030: 472c b33e 5fcc 913e 925c 7e3e 2d73 8f3c
00000040: ec32 093e b316 483e 28ce ca3d c895 0cbd
00000050: 5516 523d 49de 52bc 5fb6 993e c1c5 e1bd
00000060: 1d2a 0abd 97b0 d23d 6221 e2bd 4da9 31be
00000070: 4750 883e a590 463e 29df 6d3e abed b2bd
00000080: b5b4 413c 1e79 1f3e 81fe 383e 5a28 53bd
00000090: 44d1 403e 3b27 c0bd e92b 02bd ff72 0bbe
000000a0: 3391 ba3d 88a0 553d fe2a e1bc 1e54 9e3c
000000b0: a550 33bd c7ad 2a3e a0b3 193e 8e1e dc3c
000000c0: 6923 98bd 7e3f 5b3e 7817 9d3e 4bf4 8e3e
000000d0: 5b3c 2c3c 6ca1 6b3e d383 cd3e e94d e8bd
000000e0: ecec 0abe 8f87 723e 373f e33c 1992 4f3d
000000f0: 87f1 bfbd 0454 07be 7579 893d c8bd 9ebd
00000100: cf23 703d 47fe 23bd ce3f 1abe fcbf 1a3e
00000110: 2a09 6b39 5906 5cbd 0545 883d 94ec d4bd
00000120: 1d63 b53d ff80 c4bc 23dc 00bb bea5 91bc
00000130: d708 91bc 5b8c a1bc f570 813e fe8f e23e
00000140: 24b5 d33d a3ba 903e f647 ac3e 97e8 ccbd
00000150: b3ed 733e a9b5 603e 3e8e c0bd eea3 273e
00000160: 2b29 e23c 0753 33be 24c0 253e 3d91 02be
00000170: 56ae d3bd 9e46 753e a1ef debd 5811 70bd
00000180: e21f b43e fdd6 a43e 5fe4 ff3d efe7 d9bd
00000190: 1d86 9e3d e55a cabc 2fc8 363e 665c 803a
000001a0: 9a2a bf3e b357 953d 0376 653e e472 83bc
000001b0: e4a4 b0bd 1743 423e 3039 783d 1e41 cebd
000001c0: 6dbf 903d dd49 af3d 3944 9ebd 9815 283e
000001d0: ebda fdbd 1f79 973c 52c6 03ba fa3e f8bd
000001e0: e329 91bc dfdb aa3e 315b 603d 03f8 bfbc
000001f0: 516d f2bd a831 483e 9961 173e 3fb7 26bc
00000200: 8f45 6f3e e5a8 ba3e b7d4 453e 9d77 b93c
00000210: bc58 92bd 3719 ccbc 506b 21bd 6f11 09be
00000220: dcf8 f63d 5550 863e 173d 733e dcbc e53c
00000230: c377 aabc b9fe 813e ec6c 1b3e c5bd 7abd
00000240: 9046 c33d 54c2 8c3c b2d8 50bd 75ef e4bd
00000250: 926d a43e 8388 2c3e f02b c33c fff0 d03e
00000260: 51b9 e03e c0c8 dd3e 81a7 8c3d 594d cb3d
00000270: f5d9 ce3e d2d6 05bd 6742 943e 9974 15be
00000280: 5c6e c1bd a7cd cc3d 18ce c0bd 9021 adbd
00000290: a115 ad3e 5118 efbc 95dc 4bbe 9aa3 a7bd
000002a0: c30a afbd 6d4e bdbd d473 e73e ed3c 95bd
000002b0: b0ea 16bd f816 1c3e 08be cfbc aae4 b63e
000002c0: 3f78 01be 8e16 963c 6630 c63e 88fd e33c
000002d0: f541 b53d ccbc 27bd cc89 7a3e 16e7 29bd
000002e0: f077 903e 76e0 d93c ace0 d1bd c820 6e3e
000002f0: f89b 96bd dbdf c9bd 405c 8dbd 5115 52bd
00000300: b95f 90bc 47f4 143e 1c3e 9ebc 500b 8abd
00000310: 73aa d53d ffc7 c53d d291 bbbc ca6a b83d
0.18091464 -0.1459926 -0.032420278 0.19261003 -0.11192967 0.35492885 0.36576518 -0.10786551
-0.13673079 0.006943658 0.20392686 -0.13133588 0.34994718 0.28476235 0.2484 0.017510975
0.13398331 0.19539909 0.099026024 -0.03432253 0.05129083 -0.01287038 0.3002195 -0.11024047
-0.03373157 0.10287588 -0.110415235 -0.1734974 0.26623747 0.19391115 0.2322966 -0.08736738
0.011822869 0.15573546 0.18065836 -0.051552154 0.18829829 -0.093824826 -0.031780157 -0.13618086
0.09109726 0.052155048 -0.02748632 0.01932722 -0.04377808 0.16667853 0.15009928 0.026870038
-0.07428629 0.21410939 0.30681968 0.27920756 0.010512437 0.23010796 0.40139636 -0.11342985
-0.13566941 0.23684524 0.027740104 0.05067644 -0.093722396 -0.13215643 0.06712619 -0.07751042
0.0586279 -0.04003742 -0.15063402 0.15112299 0.0002241476 -0.05371699 0.066537894 -0.10396686
0.08856795 -0.023987291 -0.0019662462 -0.017779227 -0.01770441 -0.019720247 0.25281492 0.44250482
0.10337284 0.28267393 0.33648652 -0.100053005 0.23821144 0.21944298 -0.094021305 0.16371128
0.027607521 -0.17512141 0.16186577 -0.12750717 -0.10335986 0.2395272 -0.10885549 -0.05861029
0.35180575 0.32195273 0.1249473 -0.10639941 0.07740424 -0.024701545 0.17849801 0.0009793162
0.3733719 0.07292118 0.22408299 -0.016045995 -0.086252004 0.18970905 0.060601413 -0.10071014
0.070677616 0.0855901 -0.07727856 0.16414487 -0.12395271 0.018490372 -0.00050268054 -0.12121387
-0.017720168 0.33370873 0.054774467 -0.02343369 -0.11837257 0.19550192 0.14783324 -0.010175525
0.23366378 0.3645698 0.19319426 0.022640044 -0.07145831 -0.024914367 -0.03940898 -0.13385557
0.12059185 0.26233163 0.23753773 0.028044157 -0.02080906 0.2538965 0.15178269 -0.061216135
0.09534943 0.017182507 -0.050987907 -0.11178485 0.32114846 0.1684895 0.023824662 0.40808865
0.43891385 0.43317223 0.06867886 0.09926862 0.40400663 -0.03267557 0.2895691 -0.1459526
-0.094448775 0.100001626 -0.09414309 -0.08453667 0.33805564 -0.0291864 -0.19908364 -0.081855014
-0.085469745 -0.09243474 0.45205557 -0.07287011 -0.03684491 0.15243137 -0.025359169 0.35721332
-0.12643526 0.018321302 0.387088 0.027830854 0.08850471 -0.040951535 0.24466628 -0.041480146
0.28216505 0.02659629 -0.10247931 0.23254693 -0.073539674 -0.0985715 -0.06902361 -0.05128986
-0.01762377 0.1454631 -0.019316725 -0.06740439 0.10432901 0.09657287 -0.022896681 0.090047434

linear2.weight f4 [3, 200]
00000000: 8a08 353e cf09 55be c31a 22bd a1b0 263e
00000010: d7f2 4fbe dd61 963e 6e98 97bb 4b32 29be
00000020: 51e0 b5bd 9b3c a9bd 90a3 373e b3ea 33be
00000030: 8cdc 123e 0854 543e 759f 583e 4cf9 0bbe
00000040: 4a2a 3f3e ad7a a43d 4107 823d 0771 9dbc
00000050: 17b1 5b3c ec81 26be e762 093e 3851 05be
00000060: 8988 a8bd 3768 d53d a96b 00be 7054 26be
00000070: 9526 133e 3300 c63d 6f3e fb3d 87b8 0abe
00000080: 2a5e 98bd 869b 223e e176 cd3d 2ea6 85bd
00000090: aafa b53d 9426 97be 0df9 e3bd e215 10be
000000a0: efd0 9d3d ea37 0cbe de8f 65bd 2023 0bbe
000000b0: 2dcf 36be 772c 273e f0fd 593e 649c afbc
000000c0: 17bd 6dbd e239 003e 4829 193e 5bd1 193e
000000d0: b7d7 5bbe 7d49 b63c e735 92bc 0b93 12be
000000e0: 3e14 05be e79c 94bd 28fa 11bd ef9d b8bd
000000f0: a22b e6bd 63cb 3cbe 5790 44be 51fd 26be
00000100: eb87 4c3d 38dd b8bd facb 2ebe adf7 ff3d
00000110: ddf7 13bd 50dd 31be efe5 95bd 31b7 09be
00000120: bf5a 84bd eccc 07be 6b74 debc b96c 15bd
00000130: 6647 75bd ed7b 06be f077 163e da9d 843e
00000140: 5ea9 973d 40c4 da3d 12f9 803d ece6 19be
00000150: 8982 2e3e 7f52 903e a5eb dcbd 42d6 113e
00000160: b3f7 11bc 0033 02be 4aed b13e 76c9 31be
00000170: 19f5 d0bd 9ab0 513b 53fe 5abe 2ee2 1abe
00000180: 6a4c db3d eac0 253e be42 653d a919 d1bd
00000190: be87 ce3d 3604 33be 677c 183c 94fb 60be
000001a0: 6f3f ad3e 19fb 763d 7e2a f63c 6c28 70be
000001b0: b619 40be db22 583e 7736 4fbe de83 25be
000001c0: b1a8 003c c2ee 523d f653 17be 7f57 2a3e
000001d0: 0a2a 5bbe df00 acbd 71a0 9fbc 6c5d 3abe
000001e0: 2ef8 133d 44ea b43d 12b4 c2bd edb7 0cbe
000001f0: f6fd cfbd f019 4a3d d6dd 0a3e f3e0 20be
00000200: 1d2a cb3e 520d 323e 2562 ea3d bf6c 32bd
00000210: 3b5a dabd 5544 7cbe 4c7f fdbd 4d1a 5fbe
00000220: 8166 f03d 53b8 2fbd a2e5 663e 7a08 eabd
00000230: 88f2 8fbd 7349 443e 6f52 0f3e f4f3 afbd
00000240: a71d 673d bb81 d4bd 506d 22be 1046 19be
00000250: 8791 133e 497d 103e df65 38be a9b4 9a3e
00000260: cf7d 183e d732 8c3e d690 cabc 2a0e 23be
00000270: ed4b a43e 28f8 c2bc baea 523e db5b 40be
00000280: fa9d 3fbe 939f 5f3d 0048 2dbe db2b c6bd
00000290: 1be7 643e b2c1 2dbe ac16 7bbe f0e1 2dbd
000002a0: 8a7f 22be 2456 a1bd 79dc 633e aa89 38be
000002b0: 3e55 94be e702 f93d 59dd 40be 8b2f c43e
000002c0: 4a4e 41be f828 cdbc bec8 2a3e dd83 373b
000002d0: 2402 a13d 1223 b0bd 761a 523e 728a f5bd
000002e0: 531d 0b3e 0150 46be 2cd3 66be 28b3 0a3e
000002f0: a449 dabd 9d80 53be 316f 0fbe afc5 0bbe
00000300: c3f0 12be 029a 0d3e 72f8 98bd 9bf3 00be
00000310: b3bd e93d 9161 223d e748 31be 1b05 5ebd
00000320: 7d6a 07bd ab91 263d dc17 00be 4917 893d
00000330: 47c8 9a3d cb49 d03d 8db0 7e3e 772c 9abc
00000340: 09d9 b43d c74e 0f3e 2835 6d3d d83e c23c
00000350: 4771 fa3d 32cf a8bd 2223 17bd 46a8 acbe
00000360: f431 0dbe f339 2b3e 3e6e 07be c436 6cbd
00000370: 3d11 66be e3a9 c93d dfba df3d 7f18 83bc
00000380: 531f cdbd 6fec 34be 9f96 db3c f0f9 c43d
00000390: 82e4 b43d efcd 7f3d a001 d43d 5fb2 a9bd
000003a0: 8c82 3cbe 8d1a 8cbd dd18 083e 9f28 e2bd
000003b0: c968 65bd 4652 d1bc 7393 1f3e 361b d5bc
000003c0: b3dd ecbd b7c3 583e 93ed 75bd 222d c43d
000003d0: 9df0 c23d 05b7 a4be 9324 4abe 490a 01be
000003e0: 6e67 883a 2acd dcbd 177b 193e 89c8 803d
000003f0: 49b8 893e dc36 7f3e e129 b13e 2ea7 bebc
0.17679039 -0.20804523 -0.039576303 0.16278316 -0.2030748 0.2937154 -0.0046263253 -0.16523091
-0.088806756 -0.08263513 0.17933488 -0.1757 0.14341944 0.2073518 0.21154578 -0.13669318
0.18668476 0.08031211 0.0634904 -0.019218935 0.013408921 -0.16260499 0.13416635 -0.13019264
-0.08229167 0.10420268 -0.12541069 -0.16243148 0.14370187 0.09668007 0.12267768 -0.13546954
-0.07439835 0.1587964 0.1003244 -0.06525837 0.08885701 -0.2952162 -0.11131487 -0.14070848
0.077058665 -0.13693205 -0.056045406 -0.13587618 -0.17852469 0.16325556 0.21288276 -0.021436878
-0.05804166 0.1252208 0.14957154 0.15021269 -0.21469007 0.022251839 -0.017847968 -0.14313905
-0.12996003 -0.07256489 -0.03563896 -0.090144984 -0.11238791 -0.18436961 -0.19195686 -0.1630757
0.04993431 -0.09026569 -0.17069998 0.12498412 -0.036125053 -0.1736958 -0.07319247 -0.13448788
-0.06462621 -0.13261765 -0.027155122 -0.03648064 -0.059882544 -0.13133211 0.1469419 0.2590168
0.07405351 0.10681963 0.062975064 -0.15029496 0.17041983 0.2818794 -0.10787133 0.14241889
-0.008909154 -0.12714767 0.3475135 -0.17362007 -0.10202999 0.0031996132 -0.2138608 -0.15125343
0.10707934 0.16186872 0.055971853 -0.102099724 0.100844845 -0.17482075 0.009307004 -0.2197097
0.33837458 0.06029806 0.030049559 -0.2345292 -0.18759808 0.21107046 -0.2023562 -0.16163585
0.007852719 0.05149723 -0.14778122 0.1663494 -0.21402755 -0.08398604 -0.019485684 -0.181997
0.036125354 0.08833745 -0.09507002 -0.13742037 -0.10155861 0.049341142 0.13561186 -0.15710811
0.39680567 0.17387894 0.11444501 -0.04356074 -0.10661741 -0.24635442 -0.123777956 -0.21787377
0.11738301 -0.042900395 0.22548535 -0.11427398 -0.07028681 0.19168644 0.1399629 -0.08591452
0.056424763 -0.103763066 -0.15862012 -0.14968133 0.14410983 0.14110292 -0.1800761 0.30215958
0.14891742 0.27382538 -0.024727266 -0.15923372 0.32089177 -0.02379997 0.20597354 -0.1878504
-0.18712607 0.05459554 -0.16921997 -0.096763335 0.22353785 -0.1696842 -0.24520367 -0.0424518
-0.15868965 -0.07877758 0.22252072 -0.18021265 -0.28971285 0.12158757 -0.18834437 0.38317522
-0.18877521 -0.02504395 0.1667814 0.002800218 0.078617364 -0.08600439 0.20517907 -0.11989297
0.13585405 -0.19366457 -0.22541493 0.13544905 -0.10658577 -0.20654531 -0.1400726 -0.13649629
-0.14349656 0.1382828 -0.07469262 -0.12592928 0.114131354 0.039643828 -0.17312966 -0.054204088
-0.03306054 0.040666264 -0.12509102 0.066938944 0.07557731 0.10170325 0.24872036 -0.01882003
0.08830459 0.13994895 0.057912022 0.023711607 0.12228637 -0.08242644 -0.03689874 -0.33722132
-0.13788587 0.16721325 -0.13225648 -0.057669416 -0.22467513 0.098468564 0.10924315 -0.016002892
-0.1001574 -0.17668317 0.02680522 0.09617984 0.08832647 0.062452253 0.103518724 -0.08285975
-0.18409175 -0.06841002 0.13290735 -0.11042904 -0.056008134 -0.025551926 0.15583591 -0.026013952
-0.11565723 0.2116841 -0.06004102 0.09578921 0.095185496 -0.32170883 -0.19740514 -0.1260158
0.0010406801 -0.107813194 0.14988361 0.06288249 0.2689841 0.24923271 0.34602264 -0.023273077

linear2.bias f4 [3]
00000000: 09da da3d 4e8e 92bd e577 f1bd
0.10686118 -0.07156049 -0.11790446
