Python_Pipeline/codes_emu/seeg_analysis_suite/ai/rasternet/models/rasternet_3.pt (torch, 365296 bytes, 4 tensors)

linear1.weight f4 [200, 450]
0.03171921 -0.06659961 -0.029120935 -0.18796998 -0.18374147 -0.027452394 0.04119859 0.0014496015
-0.09872782 0.011194906 0.016875928 -0.047556836 -0.029371943 -0.061327185 -0.116078205 0.15056369
-0.027986713 0.11382787 0.02988194 0.095885634 0.06986336 -0.030849805 0.091702454 0.026645025
-0.035026766 0.048706174 -0.037078086 -0.06586321 0.02696841 -0.047586866 0.009766664 -0.080232605
-0.040677052 -0.13144015 0.124123484 -0.13782294 -0.030892413 -0.07243197 -0.028333738 -0.07141578
-0.03148483 -0.1495876 -0.042652328 -0.04769103 0.07701672 -0.06001823 0.1286127 0.09750698
0.031012056 0.19661924 -0.0011163943 -0.0823467 -0.08390584 0.08981752 -0.014921922 0.04847761
0.08903754 -0.2129336 -0.05106465 0.015973164 0.015439234 -0.007864958 -0.09573726 -0.043945175
-0.111936174 -0.029801274 0.01349872 -0.022968682 -0.11127327 -0.09403591 -0.16335526 0.10103428
0.08730855 0.06549737 -0.0530174 0.09324267 -0.02078228 0.015648955 0.01981282 0.07639787
-0.0727067 -0.03594594 -0.0269552 0.106225334 0.05203427 -0.08102781 -0.09189293 0.02210559
0.09302521 0.025450459 0.1255405 -0.016433472 0.12814578 -0.008686907 0.049024872 0.08231255
0.06504009 -0.047458842 0.03351616 -0.029773096 -0.061769385 0.06480112 -0.11547019 -0.070147544
0.06525592 -0.08645914 0.038420342 -0.025978869 -0.00993351 0.025746252 0.0755032 -0.10485642
0.12545255 0.008739209 -0.033560112 0.07983672 0.020543572 0.030184345 0.08862809 0.046951037
-0.06961553 -0.022942206 -0.07856943 -0.046764404 0.09037676 0.1623106 0.091548964 -0.016906995
0.068245634 0.04796802 0.15492907 -0.12954286 0.1056691 0.09819218 -0.07870296 0.01674619
0.061020307 0.07345726 0.0908588 0.13081501 0.18850406 0.0072943885 0.031145897 0.0608035
0.06314015 -0.12907808 0.075147726 0.039400246 0.12005277 -0.03520206 0.03321059 -0.005102922
0.03645339 0.030737543 -0.0030358108 -0.27102828 -0.1269944 -0.041886266 0.058450237 -0.093596496
0.042869166 0.11136477 -0.036215976 0.047300354 0.014001663 0.03907991 -0.14295119 0.008955949
-0.002864009 0.071317926 -0.0245647 -0.015818147 0.055055644 -0.0006089219 0.07084786 0.12961118
0.1336927 0.09768195 0.0008098932 0.042198613 -0.032582384 -0.060413044 -0.047549363 0.038164113
-0.011833798 -0.047484312 0.062870055 0.039395276 0.03666698 -0.028630357 -0.12768571 0.11170919
0.0222092 0.0725271 -0.07590386 0.066553645 -0.084154986 -0.2116772 -0.14268026 0.1821346
-0.07234601 -0.20999841 0.060608335 0.024598077 -0.117270865 -0.0128308395 0.12987342 -0.09439236
-0.113869086 -0.13244976 0.0664607 0.010811039 -0.19519839 -0.04026684 0.11326627 -0.019193122
-0.13827884 -0.120487265 0.035513144 0.09468362 -0.05893027 -0.008997111 0.067058645 0.05004958
0.0425004 -0.14536569 -0.002953785 0.07925926 0.04753277 -0.13951014 0.05252518 0.052694168
0.09678394 -0.061999377 -0.0053243055 -0.037663057 0.10788532 0.0010069209 -0.05431686 0.015165445
0.046886206 -0.108058624 0.035765134 -0.009165835 0.07315428 0.06690049 -0.123829156 -0.10673147
-0.054325636 0.007213469 0.10043847 0.035805237 0.061328802 0.021404818 0.036092736 -0.02832368
00000000: 01ec 013d 6065 88bd 078f eebc 347b 40be
00000010: b926 3cbe d8e3 e0bc dabf 283d 8e00 be3a
00000020: d031 cabd d76a 373c 633f 8a3c f5ca 42bd
00000030: 6e9d f0bc 3732 7bbd 69ba edbd 5e2d 1a3e
00000040: 6444 e5bc 961e e93d f8ca f43c b05f c43d
00000050: 8514 8f3d bbb8 fcbc 7fce bb3d ab46 da3c
00000060: 3a78 0fbd 2080 473d 31df 17bd 4ae3 86bd
00000070: dbec dc3c 72ea 42bd 5c04 203c fe50 a4bd
00000080: fb9c 26bd 3f98 06be 7434 fe3d 7521 0dbe
00000090: 1612 fdbc 3657 94bd 281c e8bc 7042 92bd
000000a0: 3df6 00bd 7e2d 19be 35b4 2ebd ab57 43bd
000000b0: f1ba 9d3d add5 75bd 0cb3 033e bdb1 c73d
000000c0: ff0c fe3c 8e56 493e fa53 92ba 63a5 a8bd
000000d0: d3d6 abbd 3ff2 b73d 147b 74bc 7590 463d
000000e0: 5059 b63d 440b 5abe 2b29 51bd 27da 823c
000000f0: d7f4 7c3c 06dc 00bc e611 c4bd dbff 33bd
00000100: cb3e e5bd cd21 f4bc bc29 5d3c d128 bcbc
00000110: 3de3 e3bd e695 c0bd 9a46 27be 10eb ce3d
00000120: d3ce b23d 7c23 863d c628 59bd 03f6 be3d
00000130: 9a3f aabc 3d32 803c 7f4e a23c 7d76 9c3d
00000140: 40e7 94bd 0d3c 13bd 27d1 dcbc ab8c d93d
00000150: e321 553d e9f1 a5bd 5c32 bcbd c816 b53c
00000160: 0084 be3d 7b7d d03c b08d 003e 7d9f 86bc
00000170: a638 033e 8753 0ebc 4ece 483d 7b93 a83d
00000180: bd33 853d 3464 42bd 3e48 093d b5e6 f3bc
00000190: e501 7dbd 73b6 843d a37b ecbd 84a9 8fbd
000001a0: e5a4 853d 7d11 b1bd a65e 1d3d a3d1 d4bc
000001b0: 29c0 22bc cee9 d23c 6ca1 9a3d f6be d6bd
000001c0: a276 003e e62e 0f3c 5476 09bd 6f81 a33d
000001d0: fe4a a83c 2945 f73c a582 b53d bb4f 403d
000001e0: 9692 8ebd 4bf1 bbbc 02e9 a0bd 088c 3fbd
000001f0: 7317 b93d c034 263e 067e bb3d 8a80 8abc
00000200: 5ec4 8b3d 1d7a 443d baa5 1e3e e2a6 04be
00000210: 0b69 d83d fb18 c93d 042f a1bd 4e2f 893c
00000220: 6ef0 793d c370 963d 2e14 ba3d 5ff4 053e
00000230: 3507 413e c405 ef3b ae25 ff3c 170d 793d
00000240: 9f4f 813d 0b2d 04be 0de7 993d 2762 213d
00000250: 3ade f53d 0930 10bd d407 083d 6a36 a7bb
00000260: 2650 153d 4dcd fb3c 74f4 46bb 38c4 8abe
00000270: d20a 02be ef90 2bbd 8469 6f3d 85af bfbd
00000280: 9497 2f3d 3613 e43d 3457 14bd 04be 413d
00000290: 3b67 653c 4112 203d cc61 12be f9bb 123c
000002a0: 19b2 3bbb 220f 923d e93b c9bc 0f95 81bc
000002b0: 0782 613d 0fa0 1fba af18 913d cbb8 043e
000002c0: bde6 083e 790d c83d 034f 543a 74d8 2c3d
000002d0: 1b75 05bd ab73 77bd 1fc3 42bd f951 1c3d
000002e0: 8ce2 41bc e97e 42bd 04c2 803d f15c 213d
000002f0: 1d30 163d 368a eabc 0bc0 02be cac7 e43d
00000300: 11f0 b53c 1789 943d 7c73 9bbd 474d 883d
00000310: 7359 acbd e8c1 58be c61a 12be 7e81 3a3e
00000320: 252a 94bd d309 57be 7240 783d e881 c93c
00000330: b52b f0bd 7138 52bc 8afd 043e c850 c1bd
00000340: 3234 e9bd e9a0 07be 8c1c 883d c920 313c
00000350: 16e2 47be d8ee 24bd 25f8 e73d e53a 9dbc
00000360: f898 0dbe 07c2 f6bd 3b76 113d 7ce9 c13d
00000370: de60 71bd 9e68 13bc 0b56 893d ca00 4d3d
00000380: e614 2e3d beda 14be 4a94 41bb ae52 a23d
00000390: b9b1 423d bfdb 0ebe a524 573d d7d5 573d
000003a0: a936 c63d 0ff3 7dbd 8377 aebb 9444 1abd
000003b0: fbf2 dc3d a9fa 833a 5b7b 5ebd 7d78 783c
000003c0: c00b 403d d74d ddbd 767e 123d 4c2c 16bc
000003d0: e9d1 953d 2003 893d 249a fdbd 0796 dabd
000003e0: 8f84 5ebd f75e ec3b afb2 cd3d 83a8 123d
000003f0: e933 7b3d 2859 af3c fad5 133d 1007 e8bc

linear1.bias f4 [200]
0.29330945 -0.006064905 -0.013089623 0.36900407 -0.01368219 0.031852927 -0.034198016 0.19999784
0.038711566 0.2439412 -0.036158882 0.09855397 0.2498325 0.14887181 0.08427444 0.26337022
0.24581563 0.013687977 0.20333719 -0.08751887 0.22427538 0.0941457 -0.005834328 0.10296135
0.35930026 0.022500016 0.053098388 0.0035619147 0.0624231 0.12680435 0.15627694 0.10422032
0.14115994 0.041384093 0.18936788 -0.026595142 0.009950889 -0.030656777 0.17655692 0.32168657
0.19894744 0.017338939 0.22380543 0.20846698 0.19874667 -0.014635523 0.051741954 -0.023845162
-0.0030226223 0.1715817 0.025184056 -0.006626675 0.12301605 0.14677761 0.0042053675 0.224484
-0.013230899 -0.045165762 0.09560888 -0.022742521 0.33165416 -0.012996785 -0.025271613 0.07410333
-0.011226121 0.22333524 0.49256074 0.056887582 0.20761329 0.1496382 0.096136816 -0.033401076
-0.04659482 -0.01104682 -0.01491127 0.088705555 0.37159958 0.22686203 0.08085973 0.007955101
0.088490516 0.06993088 -0.038056243 0.09073707 0.052556127 0.12265768 0.019972945 0.021820206
0.01173271 -0.0068233437 0.12363359 0.016591707 0.030355463 0.23774107 -0.0074318903 -0.021188943
0.11256441 0.26054764 0.08257268 0.07442404 0.10151033 -0.020878531 0.14204314 -0.008679931
0.14325123 0.004875046 0.06530974 0.007524933 0.07507495 -0.03528875 0.089911394 0.12599324
-0.033975378 0.21551813 0.17332946 0.33265397 0.2225712 -0.027149167 0.057695225 0.009225985
0.08481932 -0.18060935 0.023789693 0.20449992 0.023695884 -0.012727313 0.29136196 0.038261708
0.121673174 -0.076617114 0.11960522 0.015789729 0.013993764 0.17520373 -0.11558851 0.20778449
0.109254666 0.24181844 0.22273599 -0.0038027393 -0.004216512 0.18626939 0.339901 0.10157779
0.0059145135 0.028657636 0.1234231 0.09275567 0.035943132 0.13275608 -0.019067511 -0.006939694
0.011518877 0.03259227 0.30696946 -0.00990691 0.1263199 0.26023296 -0.003353551 0.105185725
0.06829244 0.025102854 0.09046847 0.042576954 0.24783526 0.07183777 0.08750541 0.14670241
0.08191664 -0.04160599 0.17454591 0.022074861 0.122882 0.09598431 0.15221366 0.15648523
0.12681021 0.09129777 0.19661698 0.013338265 0.12021178 0.13301894 0.42985106 0.22482218
0.17283414 0.1420683 -0.033029053 -0.0076272595 0.09385402 0.13036922 -0.032382194 0.18171704
0.081136875 0.019293416 0.108736575 -0.05553338 0.0037323437 0.10356609 0.13968216 0.2684815
00000000: a82c 963e 1cbc c6bb dc75 56bc 1aee bc3e
00000010: 442b 60bc 3778 023d 3813 0cbd 3ccc 4c3e
00000020: 0590 1e3d b9cb 793e 561b 14bd aad6 c93d
00000030: 17d4 7f3e da71 183e 1498 ac3d 76d8 863e
00000040: 18b7 7b3e 8943 603c a037 503e 183d b3bd
00000050: 72a8 653e 76cf c03d e42d bfbb 66dd d23d
00000060: 34f6 b73e f451 b83c b27d 593d 036f 693b
00000070: 5daf 7f3d 00d9 013e 1007 203e 7771 d53d
00000080: 3b8c 103e 5e82 293d a7e9 413e 0ede d9bc
00000090: 0e09 233c ec23 fbbc 56cb 343e 1ab4 a43e
000000a0: e1b8 4b3e 640a 8e3c 402d 653e 5e78 553e
000000b0: 3f84 4b3e d5c9 6fbc 5fef 533d ee56 c3bc
000000c0: 3017 46bb 1db3 2f3e cb4e ce3c 9424 d9bb
000000d0: d7ef fb3d df4c 163e 2ecd 893b 22df 653e
000000e0: 6ac6 58bc bcff 38bd 97ce c33d 864e babc
000000f0: 93ce a93e 78f0 54bc 6a06 cfbc 7dc3 973d
00000100: c4ed 37bc feb1 643e ec30 fc3e f402 693d
00000110: 9498 543e c23a 193e 61e3 c43d 91cf 08bd
00000120: 36da 3ebd b9fd 34bc 664e 74bc 42ab b53d
00000130: 4d42 be3e 854e 683e c999 a53d 1d56 023c
00000140: 843a b53d ec37 8f3d dde0 1bbd 5bd4 b93d
00000150: 1845 573d f333 fb3d 4d9e a33c 4ac0 b23c
00000160: 8d3a 403c 5b96 dfbb 9c33 fd3d 55eb 873c
00000170: 05ac f83c 6572 733e 3787 f3bb 6f94 adbc
00000180: 2b88 e63d 8066 853e de1b a93d a26b 983d
00000190: a6e4 cf3d 7409 abbc c273 113e 4536 0ebc
000001a0: 73b0 123e dabe 9f3b 1dc1 853d b793 f63b
000001b0: e5c0 993d f08a 10bd 7723 b83d 5f04 013e
000001c0: c429 0bbd c9b0 5c3e 477d 313e 9f51 aa3e
000001d0: b4e9 633e ee67 debc d451 6c3d 9628 173c
000001e0: c0b5 ad3d a8f1 38be 9ae2 c23c 6d68 513e
000001f0: df1d c23c 3886 50bc 652d 953e 4fb8 1c3d
00000200: c92f f93d 6fe9 9cbd 95f3 f43d 7659 813c
00000210: 1a46 653c 9b68 333e abb9 ecbd 75c5 543e
00000220: e9c0 df3d 419f 773e e714 643e 6137 79bb
00000230: ab2a 8abb 67bd 3e3e 8107 ae3e 0408 d03d
00000240: 89ce c13b 6bc3 ea3c 40c5 fc3d aff6 bd3d
00000250: 1b39 133d 36f1 073e 7833 9cbc 5f66 e3bb
00000260: acb9 3c3c 797f 053d 1a2b 9d3e 9850 22bc
00000270: 015a 013e 413d 853e 40c7 5bbb 9d6b d73d
00000280: e8dc 8b3d 80a4 cd3c 8847 b93d 2c65 2e3d
00000290: 87c8 7d3e ae1f 933d 0936 b33d 2839 163e
000002a0: e9c3 a73d 0b6b 2abd 2abc 323e 57d6 b43c
000002b0: 8fa9 fb3d 6c93 c43d e6dd 1b3e aa3d 203e
000002c0: 89da 013e 53fa ba3d f655 493e bd88 5a3c
000002d0: 9831 f63d 1e36 083e 7015 dc3e c937 663e
000002e0: 6ffb 303e 5a7a 113e 7949 07bd 17ee f9bb
000002f0: 8936 c03d 827f 053e 31a3 04bd 0814 3a3e
00000300: 172b a63d 3a0d 9e3c 48b1 de3d f876 63bd
00000310: 569a 743b 751a d43d d708 0f3e 6876 893e

linear2.weight f4 [3, 200]
-0.3878371 0.08225905 -0.07145903 -0.71228737 0.11605612 -0.572568 0.22154646 -0.27380735
-0.25165245 -0.3709034 0.1195792 0.007113744 -0.30876198 0.016249597 0.1323817 -0.35050356
-0.46144328 0.11895116 -0.28398672 -0.36774996 -0.30354238 -0.27618045 -0.21469715 0.15388578
-0.91029096 0.23241276 0.113596044 0.24624449 -0.53205734 -0.37679723 -0.2358278 0.12877196
0.11249901 0.42191732 -0.41053137 -0.39681458 -0.021094885 0.17374595 -0.32028311 -0.6211875
-0.18436055 0.41913453 -0.34291247 -0.27755037 -0.46033964 0.29642135 -0.19342774 0.20182934
-0.18743373 -0.34726837 0.21202014 0.19602908 0.545761 -0.05453489 0.10131519 -0.3165902
-0.3163818 -0.4067419 0.16862412 -0.6417672 -0.66387826 0.2353621 -0.09765455 -0.19622034
-0.009848677 -0.41650453 -1.193396 0.4235254 -0.33129635 0.05254702 0.041644014 0.23561357
0.15131776 0.08343019 0.030624354 -0.022450218 -1.1422294 -0.4171862 0.043978203 0.22058126
-0.15490769 0.13391773 0.26609936 -0.25372967 0.09298638 -0.05589555 -0.5535488 -0.083196305
0.31200165 0.2028887 0.17686738 -0.6226117 -0.18131094 -0.25351036 0.1985959 0.14732847
0.07215897 -0.33307126 0.12542033 -0.40853217 0.1698689 0.14699166 0.3004259 0.24098508
-0.09467778 0.25860995 0.13643676 -0.6950311 -0.38578162 0.16698362 -0.27117753 0.0785381
-0.4426667 -0.46152416 -0.41057697 -1.1230909 -0.4265531 -0.0018758299 0.12237837 0.1589233
0.39939597 0.10158274 -0.23733895 -0.189582 -0.10990696 0.203559 -0.97686845 0.19849634
-0.23062861 0.31956443 0.15803064 0.92160654 0.15446612 -0.23658395 0.22541285 -0.4494164
0.15741558 -0.33767435 -0.4605618 0.16153617 0.20036627 -0.2779394 -0.38597992 0.031374592
0.23375711 0.2919648 0.027869012 -0.3105549 -0.2762564 -0.25666443 0.12086622 0.2311623
0.3908624 -0.17019871 -0.5187411 0.1816384 0.12003249 -0.8802131 0.27476472 -0.10665313
0.021117117 -0.13942923 0.059024993 -0.32680994 -0.53967345 0.21198237 0.1764158 -0.3338581
0.07642843 -0.24815062 -0.20119762 0.24696878 0.18266004 0.17232808 -0.38666186 -0.30191833
-0.6050958 0.19128254 -0.67044234 0.40217784 -0.41795608 -0.25995272 -0.98213905 -0.20389186
-0.2761168 -0.4054889 -0.23069793 -0.45803037 -0.54568547 0.17702553 -0.53587127 -0.23168826
0.16927771 -0.41589877 -0.3025505 -0.35690042 0.14749551 0.013168444 0.3423439 -0.20815274
0.101707734 0.307494 0.3980407 0.1634729 0.33832845 1.0015502 0.3159031 0.08145919
0.88129723 0.05437618 0.15812503 -0.104660705 0.078928195 -0.13154164 -0.17626756 0.0560216
0.13534477 0.30900308 0.03364414 -0.5155511 0.017587844 0.09580842 0.28035635 -0.17684045
0.13716793 0.19011414 -0.22551662 0.073935986 -0.6460135 -0.45995387 0.109555416 -0.18148053
-0.15636833 0.2519632 -0.62470543 0.57030606 0.422598 0.27448776 0.061943427 0.031305604
0.11784991 0.031871017 0.07818397 0.06600545 0.07399333 0.26697528 0.07788464 0.05786587
0.37406808 0.10648848 0.23103867 0.16979703 0.4171648 -0.051507127 -0.15906596 0.1331323
00000000: 9692 c6be 6f77 a83d 1d59 92bd 7758 36bf
00000010: d5ae ed3d d193 12bf 13dd 623e 7a30 8cbe
00000020: 97d8 80be 0de7 bdbe f1e5 f43d 691a e93b
00000030: 0d16 9ebe e01d 853c 128f 073e 3475 b3be
00000040: 4b42 ecbe aa9c f33d b566 91be b949 bcbe
00000050: e869 9bbe 8667 8dbe 92d9 5bbe 3c94 1d3e
00000060: d408 69bf 9cfd 6d3e 0ba5 e83d 8427 7c3e
00000070: e934 08bf 91eb c0be d87c 71be ccdc 033e
00000080: e265 e63d 8c05 d83e 2b31 d2be 482b cbbe
00000090: 2ecf acbc 75ea 313e 26fc a3be 2506 1fbf
000000a0: 03c9 3cbe cd98 d63e 3992 afbe 151b 8ebe
000000b0: a3b1 ebbe 8ac4 973e ec11 46be 5aac 4e3e
000000c0: a1ee 3fbe 29cd b1be cf1b 593e d9bb 483e
000000d0: feb6 0b3f fa5f 5fbd 577e cf3d 1c18 a2be
000000e0: ccfc a1be 7940 d0be cdab 2c3e db4a 24bf
000000f0: edf3 29bf c302 713e 1cff c7bd fced 48be
00000100: 585c 21bc 1540 d5be 33c1 98bf 52d8 d83e
00000110: ad9f a9be 8b3b 573d ea92 2a3d af44 713e
00000120: 0bf3 1a3e 73dd aa3d eddf fa3c 85e9 b7bc
00000130: 9334 92bf 6e99 d5be 7d22 343d 0ee0 613e
00000140: 1fa0 1ebe bb21 093e 2d3e 883e dbe8 81be
00000150: a56f be3d bbf2 64bd 60b5 0dbf d362 aabd
00000160: aebe 9f3e 0ec2 4f3e b91c 353e 7b63 1fbf
00000170: 93a9 39be 1ccc 81be b95c 4b3e 46dd 163e
00000180: 15c8 933d 5188 aabe 306e 003e 212b d1be
00000190: 1df2 2d3e fb84 163e 6cd1 993e cbc4 763e
000001a0: 6de6 c1bd 8668 843e 14b6 0b3e 8fed 31bf
000001b0: 2b85 c5be c1fd 2a3e c8d7 8abe 95d8 a03d
000001c0: 36a5 e2be e54c ecbe 2537 d2be 71c1 8fbf
000001d0: 2b65 dabe 68de f5ba 83a1 fa3d cabc 223e
000001e0: a17d cc3e 9d0a d03d fb08 73be c921 42be
000001f0: e616 e1bd c571 503e 0d14 7abf a042 4b3e
00000200: e829 6cbe f39d a33e c9d2 213e 68ee 6b3f
00000210: 5e2c 1e3e 1043 72be a0d2 663e e819 e6be
00000220: 8d31 213e a7e3 acbe c2ce ebbe bd69 253e
00000230: d12c 4d3e 134e 8ebe 299f c5be a582 003d
00000240: 065e 6f3e 697c 953e 8e4d e43c 0d01 9fbe
00000250: 7b71 8dbe 8569 83be b588 f73d cfb5 6c3e
00000260: 1e1f c83e 9248 2ebe 37cc 04bf 6bff 393e
00000270: 98d3 f53d a555 61bf f6ad 8c3e f56c dabd
00000280: cefd ac3c 89c6 0ebe 31c4 713d a253 a7be
00000290: 0a28 0abf e811 593e 58a6 343e 73ef aabe
000002a0: 8286 9c3d 321b 7ebe c006 4ebe 62e5 7c3e
000002b0: 3c0b 3b3e c676 303e 8bf8 c5be 0a95 9abe
000002c0: 8fe7 1abf 92df 433e 1ca2 2bbf 41ea cd3e
000002d0: 57fe d5be 8618 85be 776d 7bbf 07c9 50be
000002e0: 2e5f 8dbe 3e9c cfbe 143c 6cbe f582 eabe
000002f0: 0bb2 0bbf 2e46 353e dc2e 09bf b03f 6dbe
00000300: 2357 2d3e aff0 d4be e6e7 9abe a7bb b6be
00000310: 1009 173e 75c0 573c b347 af3e fe25 55be
00000320: 254c d03d db6f 9d3e fecb cb3e 7165 273e
00000330: 6339 ad3e cc32 803f 0dbe a13e 13d4 a63d
00000340: b29c 613f 8fb9 5e3d 87eb 213e 5a58 d6bd
00000350: 1ba5 a13d dab2 06be 7c7f 34be e876 653d
00000360: d297 0a3e a735 9e3e 70ce 093d 28fb 03bf
00000370: 6214 903c 3437 c43d de8a 8f3e aa15 35be
00000380: c075 0c3e 48ad 423e d4ed 66be c06b 973d
00000390: 2461 25bf 137f ebbe 975e e03d 08d6 39be
000003a0: 051f 20be 5201 813e b2ec 1fbf 94ff 113f
000003b0: c45e d83e a989 8c3e 64b8 7d3d 4e3a 003d
000003c0: 4b5b f13d 2f8b 023d eb1e a03d de2d 873d
000003d0: d189 973d fcb0 883e fb81 9f3d c304 6d3d
000003e0: da85 bf3e a216 da3d 6795 6c3e 46df 2d3e
000003f0: a096 d53e 23f9 52bd 30e2 22be d553 083e

linear2.bias f4 [3]
-0.0948011 -0.06354331 0.042886645
00000000: 1427 c2bd ff22 82bd e8a9 2f3d
