Python_Pipeline/codes_emu/seeg_analysis_suite/ai/rasternet/models/rasternet_3_300.pt (torch, 725392 bytes, 4 tensors)

linear1.weight f4 [200, 900]
00000000: 9bd7 293c fffc 223d 351e 45bd 0e6f d03c
00000010: e953 b1bd 6889 8c3c b770 c0bc 8e8e 14bd
00000020: 0b25 01be ed2b d23d b154 08bd 5221 65bc
00000030: 3155 7a3c e725 64bd 2783 cdbb f7dd 88bd
00000040: d5a5 86bd a3ea 9a3c e163 9a3c 03c6 a93c
00000050: 30db c43b 3bf8 8d3b 07dc 483d 6408 15bd
00000060: 1273 213c 4fd5 40bd 97d6 a1bd 720d 9ebd
00000070: 200a eabc 4728 023d c2d2 84bc e524 523d
00000080: aca0 35bb a452 083c d42c c7bc 0ea7 be3c
00000090: 8268 3fbd 8ffe eebb b6a7 63bb ccf2 8b3c
000000a0: 1f60 84bc 6d7f da3c 9108 4bbc 2793 54bc
000000b0: b752 febc dea0 a4ba 4e74 2bbd 0edc 333c
000000c0: 49b7 023d aef7 4fbd 2419 15bb 2205 86bd
000000d0: 0e70 05bd 773b 90bc 035d 01bd 74dd 8b3d
000000e0: c2e2 883d 86c7 0cbd b69e a13d 92b4 003c
000000f0: f0b1 16bd 67b6 6cbc 0807 73bc 96b8 bb3c
00000100: 92b0 23bc 5d0e 483d ef89 a43d 9076 1b3c
00000110: 020e a1bc 603f febc 43f4 ac3d e8ad 05bd
00000120: 47eb b2bc caa8 6b3d 0126 8ebc aa50 553c
00000130: a761 cd3c 0e01 133c cde3 11bd c7c3 e13a
00000140: f5a9 093d e37c f93c 1b00 b1bc 78ef 83bc
00000150: 2e11 c53c 5850 aabd 3198 65bc e443 193c
00000160: 432f 98bd 4deb 823a 9285 6b3d 0e0c 953c
00000170: 127e a3bd 1eb7 49bd 9efd 02bd 0cef b13c
00000180: 3112 8a3c b2e7 f1bc 4e8b 053d 24b5 5cbd
00000190: 8aaa 7b3d 460b 893d 9c04 6e3c 63af 75bc
000001a0: 0361 a13d 02d5 bcb9 c646 4dbd f323 27bc
000001b0: c8a4 bb3b bace 46bd cfdf cb3c 51a5 953d
000001c0: 22fa 443d e14a b0bc d6d4 8ebd 250d 5fbb
000001d0: ef05 6cbc 48c6 cf38 52bc 753c f975 8abc
000001e0: a8fa 523b c2e1 6a3c 2c15 b73d d504 ef3c
000001f0: 3191 37bc cdf1 e6bc 608a 9abc ef81 a73c
00000200: 4f95 bfbc 884b 983c 9eec 153d 5ee2 94bc
00000210: 5ee0 62bc 0403 e23c 514e 7e3c f4b1 10bb
00000220: 97df a1bb 37af 753d e903 073d 3996 423c
00000230: 421d 5abc 6f34 82bd 5828 6b3d 7b87 ecbb
00000240: e17b 993d f680 8f3c 28e1 f13c 2309 163a
00000250: 0586 cb3b e27c 66bd 19a3 593d c3c8 8e3c
00000260: 873f 983c 31be 4c3a 2dbd 85bd 7657 c63c
00000270: f7fa 2d3d 4b5b 853c dbb3 443a ce11 8e3c
00000280: 106b 4dba da75 0ebd 179d 43bc 31c4 22bc
00000290: 32ca 91bc f867 25bd 2650 8ebd 0473 ecbc
000002a0: 6aaa 523c e5b3 90bd 9933 9abc a541 35bd
000002b0: 3769 4cbd b6a6 7a3c 5e2d 9cbc 24cd 29bd
000002c0: 101e 03bc c1d9 6bbd ad69 d73c ccb0 92bc
000002d0: ddf3 3bbd bdf7 87bd bc09 913c 49c8 c9bc
000002e0: ac42 5a3d a439 15bb ba21 493d 1c5e 7a3a
000002f0: 6a4d 7e3d 27e4 ef3b aee7 cebc cdbd 07bc
00000300: b85e 12bd 7a55 83bc 9edc 783c 275e 7dbd
00000310: 0c08 88bc 3893 aabc a846 973d 4422 0c3b
00000320: 9501 19bd 56cf 8b3d 798b 633c 12fb 433d
00000330: 7966 bebc 9040 c9bb 5b6e 82bc 16b4 89bd
00000340: 9aef 123d f4cc 88bd 52e7 8bbc 56db 39bd
00000350: 76c5 c13c c349 6f3d f189 573b 7aa5 d4bc
00000360: edf2 70bd 947e 073d be43 b9bc 42d9 f43c
00000370: 7b13 383d ef54 3d3c 0cfa a83c 9c0a 743d
00000380: 114f 873c 0ca6 253d 8c28 793d 585d adba
00000390: a423 013c 1297 4e3d 6395 813c e530 44bd
000003a0: c30b 013c 0b42 063c 4a55 debc 5923 90bd
000003b0: e16b e13b 0189 c9bc fd55 803c 3d85 3cbc
000003c0: bf10 863c 1c5e bebd c349 26bc 6ea9 91b9
000003d0: 7ae5 683d 1f3f 3f3d e945 e13c 2961 babc
000003e0: 617a a23b b105 f33c 3c0b a33c bcb1 563d
000003f0: 3362 89bd fc1c 87bc 16b4 253d ea1a 323d
0.010366346 0.039792057 -0.04812451 0.02544358 -0.08658583 0.017155364 -0.023491247 -0.036268763
-0.12611787 0.102622844 -0.033283893 -0.013984995 0.0152791 -0.05570021 -0.006271738 -0.066829614
-0.06574599 0.018910712 0.018846454 0.020724302 0.0060075745 0.00433257 0.04903796 -0.036384955
0.009854095 -0.047078427 -0.07902258 -0.07717408 -0.028569281 0.031776693 -0.016213778 0.051304717
-0.0027714176 0.008320484 -0.024313368 0.023273017 -0.046730526 -0.0072935293 -0.0034737415 0.017083548
-0.016159115 0.02667209 -0.012392179 -0.012974537 -0.0310453 -0.0012560149 -0.041858964 0.010977758
0.031913076 -0.050773315 -0.002275058 -0.06543948 -0.032577567 -0.01760648 -0.031582844 0.06829348
0.066838756 -0.034369968 0.078916 0.007855551 -0.03679079 -0.014447785 -0.014833219 0.022915166
-0.009990828 0.048841823 0.08034121 0.009488717 -0.01966 -0.031036079 0.08445027 -0.032636553
-0.021840705 0.057534017 -0.017352106 0.01301972 0.025070978 0.008972419 -0.03561764 0.0017224484
0.03360935 0.030455058 -0.021606496 -0.016105399 0.024056043 -0.083161056 -0.014013336 0.009354565
-0.074308895 0.0009988338 0.05750043 0.018194225 -0.079830304 -0.0492469 -0.03198015 0.021720432
0.016854377 -0.029529426 0.032603554 -0.053883687 0.061441936 0.06691603 0.014527466 -0.014995429
0.07879832 -0.00036016857 -0.050116323 -0.010201442 0.0057264306 -0.048536994 0.024886994 0.07306922
0.048090108 -0.02152008 -0.06974189 -0.0034034934 -0.014405712 9.907462e-05 0.014998512 -0.016901957
0.003219286 0.014336051 0.08939585 0.029177109 -0.01120405 -0.028191471 -0.01886481 0.0204477
-0.023386626 0.018590704 0.03660261 -0.018174347 -0.013847439 0.027589329 0.015521602 -0.0022078725
-0.004939984 0.05998155 0.032962713 0.011876636 -0.01331264 -0.06357657 0.05741152 -0.007218299
0.07494331 0.017517548 0.029526308 0.00057234074 0.0062110447 -0.05627144 0.053134058 0.017429715
0.01858498 0.0007810323 -0.06530223 0.024211626 0.042475667 0.016278883 0.0007503607 0.017342474
-0.0007836083 -0.03478036 -0.011939309 -0.009934471 -0.01779661 -0.040382355 -0.06948881 -0.028863437
0.012858013 -0.07065562 -0.018823432 -0.044252057 -0.04990503 0.015298536 -0.019064602 -0.041455403
-0.008002773 -0.057580713 0.026295507 -0.017906569 -0.045886863 -0.06639049 0.017704837 -0.024631636
0.05328624 -0.0022769952 0.04910443 0.00095507666 0.062085547 0.007320899 -0.025256958 -0.008284998
-0.035734862 -0.01603197 0.015189318 -0.06185737 -0.0166054 -0.020822152 0.073865235 0.0021382729
-0.037355024 0.068266556 0.013888233 0.04784686 -0.023242222 -0.0061417297 -0.015921762 -0.06723802
0.035873033 -0.06679717 -0.017078076 -0.04537519 0.023653727 0.058419954 0.0032888616 -0.025957812
-0.058825422 0.0330797 -0.02261531 0.029888753 0.044940453 0.011555894 0.020627044 0.05958043
0.016517194 0.040441558 0.060829684 -0.0013226671 0.007882033 0.05043704 0.015818303 -0.047898192
0.007876339 0.008194457 -0.027140278 -0.07037992 0.0068793152 -0.024601461 0.015666002 -0.011506376
0.016365407 -0.09295294 -0.010149422 -0.0002778279 0.05685947 0.046691056 0.027499156 -0.022751408
0.0049584364 0.0296658 0.019902818 0.052415594 -0.06708183 -0.016493313 0.040454946 0.0434827

linear1.bias f4 [200]
00000000: ebe5 313c 69f9 e0b9 5a43 67bc 6a03 d1bc
00000010: fc68 693c bf4a 9dbc 6b8a b13c 122a 683c
00000020: 523f 483b 62e1 183c 42ee 10bd a1c6 ecbc
00000030: fe6a 263d 97a4 833d 7d5d 923c 788b 43bd
00000040: 9a23 a2b9 5552 5f3b 8794 ac3b 9ce3 92bc
00000050: c856 0bbd 4637 bd3b 9933 2c3d 4eb8 363d
00000060: 742b 33bc 53c5 f9bc c118 9fbb 0330 ba39
00000070: 802a 833c eefe 3b3c f1cb 093c dd03 0a3d
00000080: d63a 8ebb b2d0 37bd 63b3 9f3c ac50 a63c
00000090: eaec 253d c77a 4a3d 4dab 31bd a06b 47bc
000000a0: b054 8c3d c93a bc3b fac2 cd3a 83a6 5e3d
000000b0: c881 583c fe7a 643d 9f9b 243c 5953 83bc
000000c0: 28d6 82bc 0f78 8c3c 9af8 223b 99ce 09bc
000000d0: a9a7 873c d074 2b3c 87c5 32bd fb0c e5bc
000000e0: 888a 343d 6736 d93a 4b7d 813c bb48 2fbd
000000f0: dbf6 053b ec4a 383b 6298 6b3d 1338 9ebb
00000100: a61f a9bc bcb5 1b3c 5a28 fe3b dfa4 80bb
00000110: 1954 7d3d 8866 a33c f3f8 60bb 5fef fe3b
00000120: 196b feba 64de 703c ae34 253d 2e39 12bd
00000130: 4d08 9f3a fb28 b4bb 44b9 2cbd f379 523d
00000140: 3b17 013d def2 e1bc 2ec3 873c c94c ed3a
00000150: 53ac c8bc f868 593d c76d dbbc b088 47bd
00000160: 8e2b 583d 2d39 213d fc86 8bbb 1603 553d
00000170: 6d71 37ba c088 103d 6811 9bbb 8b3c 28bc
00000180: c18b b53c 8826 293d cb37 c0bc 8ce5 b23c
00000190: bac9 783d 25bb 6b3d 94ac 6bbb c70f 2a3a
000001a0: 97e7 4d3d 7d7d 943b ed72 643a 6cca 2cbc
000001b0: 0443 033d e2d9 b3bc 155f 763d b66b 163d
000001c0: 0ef2 2dbc 1453 30bd 78bf 303d fb36 03bd
000001d0: 91cc 243d 118f 86bb 0b07 ba3c dbf0 5b3d
000001e0: be96 8e3b 114e ddbb 81ad 78bc 3405 3fbc
000001f0: d962 48bc a05d f03c 2905 c5bc f35f 62bb
00000200: 62bd 833d fd42 883d 45e9 b3bb 0bd1 083d
00000210: 0526 0abb 691c 813c 9a7c 113d d0c5 7abc
00000220: 554e 4f3d b015 d7bc b604 1f3d 8071 cf3c
00000230: 3acb c73c d742 dbbb 7ac1 47bd a199 9dbb
00000240: b86d d6bc c3af 733c e928 a03c b6a2 e2bc
00000250: 36e0 8dbb 7dd2 3dbc 1cb9 59bc 70dc ddbb
00000260: 3818 403b 0eb0 223c 01e7 aa3c bec5 6d3c
00000270: 5702 f43b 4bd5 303b db0e 1dbc e4e9 ca3c
00000280: 36ba 753c b68e f93c ef18 1fbd 7db0 78bc
00000290: 6015 8438 008e 483d 19ea 29bd 0ac1 2e3d
000002a0: efa7 87bb bcfc e9bc 8aa3 f83c 03ec 043c
000002b0: 7772 503d a1de 45bc f48d 583a bb90 733c
000002c0: 02c7 113d 4fd6 acbc 471f 2b3d fb39 bfbc
000002d0: 6254 883d 0caa 993a 5301 8a3c 943c 053d
000002e0: 9eb3 ec3c c892 213d e8b9 233d a585 bd3c
000002f0: 2e98 3abc 84cc 823c e1b3 203d 3ac9 643d
00000300: 6347 3d3c cee2 743c d372 c43b ddf0 4e3d
00000310: 2be4 f9bc fd4e 0dbd 96da eb3c 8b11 2c3d
0.010858039 -0.00042910434 -0.014115179 -0.025514323 0.014246222 -0.01920068 0.021672448 0.014170187
0.003055532 0.009331079 -0.03538347 -0.028903307 0.04062938 0.064278774 0.017866844 -0.04774043
-0.00030925573 0.0034076173 0.0052667293 -0.017930798 -0.034018308 0.0057744114 0.042041395 0.04460936
-0.010935653 -0.0304896 -0.004855246 0.00035512456 0.016011477 0.011474354 0.00841044 0.03369509
-0.00434051 -0.04487676 0.019494718 0.02030214 0.040509142 0.049433496 -0.043376256 -0.012171656
0.0685209 0.0057443124 0.0015698366 0.054358017 0.013214536 0.055781357 0.010046869 -0.016030954
-0.015971258 0.017147092 0.0024867416 -0.008411073 0.016559439 0.010464862 -0.043645408 -0.027960291
0.044077426 0.0016571999 0.015806815 -0.04279397 0.0020441327 0.0028120829 0.05751837 -0.004828462
-0.020644974 0.009503778 0.007756275 -0.003925904 0.06184778 0.019946352 -0.0034328073 0.00778
-0.001941058 0.01470146 0.040333442 -0.035699062 0.0012133211 -0.0054980493 -0.04216887 0.05138583
0.031516295 -0.027581628 0.016572561 0.0018104549 -0.024496233 0.05307862 -0.026785744 -0.04871434
0.052775912 0.039361168 -0.0042580348 0.052004896 -0.0006997798 0.035286665 -0.0047322996 -0.010268341
0.022161366 0.041296512 -0.023464104 0.021837972 0.060739256 0.05755152 -0.003596102 0.00064873364
0.05026969 0.004531561 0.0008714635 -0.010546308 0.032046333 -0.02195448 0.06014927 0.036723815
-0.010616792 -0.04304798 0.04315135 -0.032034855 0.040234152 -0.0041064103 0.022708436 0.053696495
0.004351466 -0.006753691 -0.015178085 -0.011658955 -0.012230598 0.029341519 -0.024050312 -0.0034542053
0.06432606 0.06653402 -0.0054904544 0.033402484 -0.002107979 0.015760617 0.03551922 -0.015305951
0.050611813 -0.026255459 0.038822852 0.025322676 0.024388898 -0.0066913175 -0.048768498 -0.0048095738
-0.026175365 0.014873448 0.019550757 -0.027665477 -0.0043297065 -0.011585829 -0.013288762 -0.006770663
0.002931131 0.00992967 0.020862104 0.014512477 0.007446568 0.0026982601 -0.009586061 0.02476973
0.014998009 0.030463558 -0.038842138 -0.015178797 6.298232e-05 0.048963547 -0.04148302 0.042664565
-0.0041398923 -0.028562896 0.030351419 0.00811291 0.050890412 -0.012077005 0.0008260899 0.014866049
0.03559018 -0.021098284 0.041777875 -0.023343077 0.0665672 0.0011723652 0.016846335 0.032528475
0.028894242 0.039446622 0.039972216 0.023135016 -0.0113888215 0.015966661 0.039234046 0.055855967
0.011552664 0.014946653 0.0059951334 0.050522674 -0.030504307 -0.034499157 0.028790753 0.042008918

linear2.weight f4 [3, 200]
00000000: 6500 d1bb c0c0 013e 6a30 ea3d 28f5 d5bc
00000010: efbc 93bd 74dc 7dbd 1507 c0bd fb37 bb3d
00000020: 027c dd3d acc5 4b3b 12f9 56bd e6e2 b43d
00000030: ab79 a33d 0325 b93c d1de fdbd 9c32 d33c
00000040: f66d 9cbd 33d1 06be b1de 4d3d 39d9 0ebe
00000050: fd0d 9c3d ffb9 70bd 5d16 d6bd 2015 603d
00000060: 0d44 b2bd 7cb9 e3bd e223 c9bd 35c1 d0bd
00000070: 4bea 133e 0696 c73d 9976 95bc ebf8 a83d
00000080: e426 59bd f93f 35bd c389 e1bd 4e3f a23d
00000090: 5bb3 823d 81b6 a23d ca98 82bd cff9 afbd
000000a0: ff1f 993c dad1 a83d baf4 cd3c ea12 47bd
000000b0: b193 bc3d 14d9 8cbd ec72 b138 7e61 e7bd
000000c0: 696d 9ebd 62f9 833d 1fd7 04be 62b6 0abe
000000d0: 844c 0c3e 508e 76bd 2ed0 ffbd 1ee4 f8bd
000000e0: 6275 8d3d 7c5d 44bd 0223 9e3c 0d8e d0bd
000000f0: 7675 b23c 59ea 7d3d bbb0 a93d 6dac 40bd
00000100: bd4d 04be df98 cfbc 9fa2 953d 1f5b 16be
00000110: c9e5 493d 458b d9bc 0fdd 313e 658a a43d
00000120: 39a7 903d 5dbd c6bd c6bb dabc b877 04be
00000130: 49bb de3b 7c5c 8fbd aa9e 8ebd 14f4 cd3d
00000140: 75fd f6bd 7919 1cbd bacf d4bd a725 253d
00000150: e0a3 d5bd 5f40 18bd cb14 f23d a77f 06bd
00000160: 33a1 0fbe 1cce ef3d 056f af3d cfbe b4bd
00000170: 7d39 b4bd 823d d63c ace5 1dbd c543 dfbd
00000180: fe5c a63d 800a efbd 3505 fb3d e9af 9b3d
00000190: 1a21 743d 4134 dd3d c3e8 49bd fcb7 febd
000001a0: 2241 48bd 43b0 6e3d c3ed cf3d 06dc c23d
000001b0: 5ba4 98bc 9c93 e0bd 8c13 823d 72aa 283e
000001c0: 4be1 823d 31e7 66bd 6e8f a93d d824 13bc
000001d0: 5c0a 0cbe f7f9 573d 2348 04be b47e c83d
000001e0: 1ba8 2a3e 7666 1d3e 2b1d b23d 2b0b c5bd
000001f0: 3380 f03d 9560 d93d 910d 233d d724 5d3c
00000200: 02fe 5fbd 269c 02be 8740 033e 41b4 cf3d
00000210: 5be8 b63d 1270 083e 3d88 65bc 66e9 763d
00000220: d171 93bd 0931 7a3c e007 043e 2145 30be
00000230: 23f7 fcbd 5a0f 7b3d 4700 59bd f189 8a3d
00000240: fef6 7d3d 7add 74bd f0de d53d 49b3 ed3d
00000250: 99cf d9bd 72a0 bcbc e371 84bd 6789 c53d
00000260: 9393 42bd 1014 c33c 2944 f83d 65f4 87bc
00000270: 7d6e 1c3e 76aa 9b3d 5cde 173e b148 0ebe
00000280: 1ffe 0b3e 9de9 1e3e 237d c03d 3095 f2bd
00000290: d930 0bbd a2fd b4bb eba2 b5bd e885 eabd
000002a0: be57 ce3d 19f6 f0bd 9760 093e b771 0abd
000002b0: c684 433d 1c18 ab3c 5a78 263d 4d34 253c
000002c0: 675e e4bd ce4e debc f804 093e 1d06 e3bd
000002d0: f6af 6f3c cf1b b63d c238 7c3d ae01 163e
000002e0: 067a 1fbc 718a 36bd 0654 a33d 8cc4 e1bd
000002f0: 1037 8bbd e1ee 31bd 3abc 113e 976e 0d3e
00000300: 66b6 94bd 30e3 04be cb43 01bd 8eb6 dbbd
00000310: d548 a6bd 1653 c2bd 0638 a8bd 893d 083e
00000320: 041d 5abc a01b f7bd ec3b d538 7858 843d
00000330: a8d2 5d3c 4658 e53d 4dcc 30bc e7cb 97bd
00000340: d717 993d ba9d a4bd eb88 be3d db9d 823d
00000350: f07d f8bd b571 debd 6523 433d 3de1 bf3d
00000360: 822c cf3d 33c2 0abe d08f ab3d 748d c33d
00000370: b857 e93d ec34 8bbd bfcd b3bd d702 cbbd
00000380: ee35 c13d f721 ff3c 43dc 123d 41b7 8c3d
00000390: e2be 70bd cdcb babd f20b e13d d3f3 97bc
000003a0: f239 7ebc 84f8 813d 6a4e bc3d 6123 b9bd
000003b0: 122b 1abe 9a6c 63bd 85e2 e73d 3a98 ca3d
000003c0: 1ca8 06be 3c13 08be 8c99 d63b b097 81bd
000003d0: f83b e1bd 9ef8 f8bd e8e8 e2bd 4ade f93d
000003e0: d132 cb3d b547 dbbd 8d57 b83d bf9d ae3d
000003f0: feb2 f23c 9c6c 003e 13da 913d a9a5 983d
-0.006378221 0.12671185 0.114350155 -0.026117876 -0.072137706 -0.06197782 -0.09376351 0.09141537
0.10814668 0.0031093163 -0.052483626 0.0883234 0.07982191 0.022600656 -0.123960145 0.025780968
-0.07638161 -0.1316574 0.050261203 -0.13950051 0.076198556 -0.05877113 -0.10453484 0.054707646
-0.08704386 -0.11119363 -0.09821297 -0.10193101 0.14444844 0.097454116 -0.018245028 0.08250602
-0.053015605 -0.044250462 -0.11012604 0.07922231 0.063818656 0.07944966 -0.063767985 -0.08592569
0.018692015 0.08243151 0.025141109 -0.048602022 0.092078574 -0.06877342 8.4614236e-05 -0.11297892
-0.07735712 0.0644405 -0.12972687 -0.13546136 0.13701063 -0.060194314 -0.12490879 -0.12152885
0.069071546 -0.047940716 0.019303802 -0.10183344 0.021784525 0.06199107 0.08285662 -0.047039438
-0.1292028 -0.02534145 0.07306408 -0.14683197 0.049291406 -0.026555667 0.17369483 0.08034209
0.07063145 -0.09704087 -0.026700865 -0.12936294 0.0067972285 -0.07000062 -0.069638565 0.1005632
-0.12060062 -0.03811023 -0.10391183 0.04031911 -0.10431647 -0.037170764 0.11820372 -0.032836583
-0.14026336 0.11709234 0.08566097 -0.08825456 -0.088000275 0.026152376 -0.03854911 -0.10901598
0.081232056 -0.116719246 0.122568525 0.076019116 0.05960188 0.10800982 -0.049294244 -0.12437436
-0.04889024 0.058273565 0.10152771 0.095146224 -0.018633058 -0.10965654 0.063513845 0.1647127
0.063906275 -0.056372825 0.0827931 -0.008980952 -0.13675827 0.05272862 -0.12918143 0.09789792
0.1666569 0.15371117 0.086969696 -0.09621271 0.11743202 0.10614125 0.03980786 0.013497553
-0.0546856 -0.12754878 0.12817584 0.101418026 0.08931037 0.13324001 -0.0140095325 0.06028118
-0.07199443 0.01527048 0.12893629 -0.1721387 -0.12351825 0.061293937 -0.05297878 0.067645915
0.06200313 -0.05978153 0.104429126 0.116064616 -0.10635299 -0.023025725 -0.06467035 0.09645348
-0.04750402 0.023813277 0.121223755 -0.016596029 0.15276523 0.07600872 0.14830917 -0.13894917
0.13671158 0.15518804 0.09398868 -0.118448615 -0.03398213 -0.0055233994 -0.08868965 -0.11451322
0.10075329 -0.117656894 0.13415752 -0.033799853 0.047734044 0.02088552 0.04064212 0.01008327
-0.11150818 -0.027137186 0.13380802 -0.110851504 0.014629355 0.08892023 0.061577566 0.14649078
-0.0097336825 -0.04456562 0.079750106 -0.110238165 -0.06797612 -0.043440703 0.14231959 0.13811718
-0.07261352 -0.1297729 -0.031558793 -0.10728179 -0.0811936 -0.09488504 -0.082138106 0.13304724
-0.013312582 -0.12065816 0.00010167793 0.064621866 0.013538994 0.111984774 -0.010790897 -0.07411938
0.0747525 -0.080378965 0.09303459 0.06377765 -0.12133396 -0.10861532 0.047641177 0.09369133
0.10115911 -0.13550644 0.083770394 0.095484644 0.11393684 -0.067972034 -0.08779477 -0.09912651
0.094341144 0.031144125 0.03585459 0.068708904 -0.05877579 -0.09120903 0.109886065 -0.018548882
-0.015516745 0.06346229 0.09194644 -0.09039951 -0.15055493 -0.055523492 0.11322502 0.09892316
-0.13150066 -0.13288587 0.006549066 -0.0632776 -0.10997766 -0.12156795 -0.110795796 0.122006014
0.09921802 -0.107070364 0.09001074 0.085261814 0.029626366 0.12541431 0.071216725 0.07453472

linear2.bias f4 [3]
00000000: 88b6 7b3d 0b2c 17bd 4461 b93d
0.061453372 -0.036907237 0.09051755
