Python_Pipeline/codes_emu/seeg_analysis_suite/ai/rasternet/models/rasternet_6.pt (torch, 725296 bytes, 4 tensors)

linear1.weight f4 [200, 900]
00000000: 8f88 91bc 3c52 1d3d 569f 15bd 7555 bebb
00000010: a05a 17bd d340 823d b852 14bd 8383 81bd
00000020: 0b45 453d f018 02bd 084c a7bc 9a5d dc3d
00000030: a3ab a93d d100 933d 116b 473d 8f19 02bd
00000040: c7a7 c63c 07c0 e53d eb47 913c 94ca 233e
00000050: 3261 c13d 1d04 2b3c 1690 c5bb 9a5a 2d3d
00000060: 31b6 833d 76ff 15bd be1c 40bd 2162 c2bd
00000070: 1098 ca3b 558b 573d 9561 4fbb 59a1 b93d
00000080: ce71 023d 65ec 393d 6874 d93b 69e3 4bbd
00000090: cd8a 8e3c 8a04 80bd 74e4 683d bed7 b6bc
000000a0: 137f b2bc 071d 76bd 19e0 38bc 29d3 293c
000000b0: f635 ecbc 6dea 8dbc 5a71 77bc 72c4 25bd
000000c0: 95e7 5c3d 6639 68bd 6e29 12bd 5398 03bd
000000d0: 2932 c1bd d85f e1bd 6492 3abd 14e2 57bd
000000e0: 3ad3 96bd 704b 08be 9a5a 813d 5e52 d53c
000000f0: 0f56 8e3c 9d20 bb3c 6e1c 50bc 9d08 93bd
00000100: 8637 b2bc ee32 89bd 86ae 64bc af8e 083c
00000110: 68a7 0ebe d823 b2bd 2a89 9ebd 7fc1 abbc
00000120: fc15 31bd 1d4c 7abc 357b d23c d3e0 e8bc
00000130: f542 53bd 9584 ff3d 2bb4 a1bc 4f50 1dbe
00000140: b97e a8bc 1ad1 bc3d af2a 67bc c812 ed3d
00000150: c1b4 48bb 7347 323d f38b 1a3c 478f 7dbd
00000160: 8eff 1f3c 7391 2d3e 6e67 963d 6325 8e3d
00000170: 3351 b43d 6813 313d e7fb 31bd c8bb 06bc
00000180: 210b 90bc 81fc 5b3d ee87 2c3e bc91 d73d
00000190: 2924 22bc e1c2 a63d 22e8 9cbd 29b7 10bd
000001a0: 7d35 06bc add2 c6bc 92d5 0d3d 59d6 60bd
000001b0: fb71 263d 810b ef3d 9014 15bc d7a0 753c
000001c0: 6481 8c3d 0701 873c 600f be3c a89e 6b3d
000001d0: fcec 573d 052e c73b 4be0 9a3d 5da5 2fbd
000001e0: 9d77 c83d d2c2 d6bc 5ff0 9fbd d64e b73c
000001f0: 4072 c7bb 6f9a 0b3e de5b 33bb d4ab 6a3b
00000200: 38ba aa3c 38b6 19bc 7a67 23bc 6f83 6ebc
00000210: e936 ae3d 871c b93d 122e 52bd 90ca de3a
00000220: ec29 a43d 7527 b63d c297 603d dbb2 96bc
00000230: 94b4 df3d dc6d fb3b e955 1dbd b62e da3c
00000240: 4cfc 393d b8bb 0f3d 4a17 e6bc 0893 70bb
00000250: 3ca8 1f3b 0728 50bd 364e 88bd 9924 bfbb
00000260: c040 a4bd 4484 e73c 5e1a 74bd 9036 a3bc
00000270: 7525 2d3d 0c37 9dbd c9d6 783d 9989 c2bc
00000280: a3de c7bc 0106 cc3d 4fca e03d 306d ec3c
00000290: f1e1 953d 3055 573d ec11 05bd 8e82 103c
000002a0: 7c69 ac3b 9c89 143e a44d b63d e853 393c
000002b0: e209 383d 07a6 19bb be43 3ab9 98e1 743b
000002c0: 41a2 8ebc 2e9b febc 7e83 e7bc c80e d83c
000002d0: 0346 77bd 8af1 a03d 01f9 0d3d d3fc 5e3d
000002e0: 6192 8f3d 285d fabc ab17 1ebd 0305 d5bc
000002f0: 7b15 743d 73ea a63c 94ed a6bc 1595 153b
00000300: 16d2 883c 325e b33d 5c9b 6fbb 0ffd 053e
00000310: 11cf 94bc 0d3c 5ebd ecab 1dbe c1c4 f03c
00000320: 99e0 34bd 3bab 8f3c fdfe 2ebd e185 343a
00000330: 7f64 723d e28f 44bd e64e a8bc 5ff3 3abc
00000340: 17bb a53c e9b0 a0bd 207f aabb a99a b23a
00000350: 5adb 6dbd c34f 80bd 27af c8bb c95b cfbd
00000360: eef3 66bd 228b 0cbc cf8c 2fbd a8ff 0e3c
00000370: 9959 afbc 7a4c 94bd 72e9 69bc 3579 ab3c
00000380: 4802 a53a 7e7f c7bd 06c3 89bc a7f7 6d3d
00000390: c84b 333d e3ba 16be cc20 45bd 940e 33bd
000003a0: da31 1d3c dd8e e43b 3958 2fbd e6de 94bd
000003b0: e553 043d cbea 973d 2972 82bd 0b69 233e
000003c0: 6da3 8e3c e459 97bd 73ae 57bc 7561 3a3c
000003d0: 8de7 343c 61a4 973d 2619 863b ce3b 5f3c
000003e0: c5e4 b73d 1003 15bd d58c 87bd 70f5 bdbd
000003f0: 9046 9dbd d220 efbd 885c c93a ba13 b8bd
-0.017765312 0.038408503 -0.036528908 -0.005808527 -0.03695166 0.063600205 -0.0362117 -0.06323912
0.048161548 -0.031762064 -0.020421997 0.107600406 0.0828469 0.0717789 0.04868609 -0.031762656
0.024249924 0.11218267 0.017734488 0.15995246 0.09442367 0.010437992 -0.0060291393 0.042322733
0.06431235 -0.03662058 -0.04690241 -0.09491373 0.006182678 0.05262311 -0.0031643857 0.09063978
0.031846814 0.04539146 0.006636191 -0.049777422 0.01740017 -0.06250866 0.056858495 -0.02231967
-0.02178911 -0.060086276 -0.011283898 0.010365286 -0.028834324 -0.017323697 -0.015102709 -0.040470548
0.05393179 -0.056695364 -0.03568404 -0.03212769 -0.094333954 -0.11004609 -0.045549765 -0.05270584
-0.07364507 -0.13310027 0.06316109 0.026040252 0.01737502 0.0228427 -0.012702091 -0.07179377
-0.021754991 -0.06699167 -0.013957625 0.0083348 -0.13931048 -0.08698243 -0.07741006 -0.02096629
-0.043233857 -0.015276936 0.025693515 -0.028427517 -0.051577527 0.1247646 -0.019739231 -0.15362667
-0.020568239 0.092195705 -0.014109298 0.11575848 -0.0030625316 0.04352517 0.009432781 -0.061904218
0.009765519 0.16950016 0.073439464 0.06940725 0.0880455 0.043231398 -0.043453123 -0.0082234815
-0.017583432 0.053707603 0.16848728 0.105258435 -0.009896317 0.08142639 -0.07661463 -0.035330925
-0.008191464 -0.02427038 0.034627505 -0.054891918 0.040636044 0.11672116 -0.009099141 0.0149919605
0.06860617 0.016479982 0.02320069 0.057524353 0.05271624 0.006078484 0.07562312 -0.042882312
0.097884394 -0.026215944 -0.07809519 0.02237646 -0.0060866177 0.1363313 -0.002736799 0.0035807984
0.02084075 -0.009381823 -0.009973401 -0.014557703 0.08506567 0.09038644 -0.051313467 0.0016997624
0.080158085 0.088942446 0.054832228 -0.018395832 0.109231144 0.0076730084 -0.03841201 0.026633602
0.045406625 0.035091132 -0.028087277 -0.0036708731 0.002436175 -0.050819423 -0.066555426 -0.00583322
-0.080201626 0.028261311 -0.05959546 -0.019923478 0.04227205 -0.07676515 0.06075171 -0.023747252
-0.024398154 0.09962083 0.10976087 0.028860658 0.073184855 0.052571476 -0.032487795 0.008820189
0.005261598 0.14505619 0.089015275 0.011311509 0.0449313 -0.0023444907 -0.00017763578 0.003736591
-0.017411353 -0.031079855 -0.028260943 0.026374236 -0.060369503 0.0785857 0.034661297 0.05444033
0.070103414 -0.030561998 -0.03859679 -0.026003366 0.059590798 0.020375466 -0.020376958 0.0022824456
0.01670174 0.08758201 -0.0036561107 0.13084815 -0.018165143 -0.054256488 -0.15397614 0.029390695
-0.044159506 0.017537704 -0.042723645 0.00068864046 0.05917787 -0.04798878 -0.020545434 -0.011410563
0.020230813 -0.07846243 -0.0052031428 0.0013626415 -0.058070518 -0.06265213 -0.0061243954 -0.101249285
-0.056384973 -0.008578094 -0.042858895 0.008727945 -0.021405028 -0.07241149 -0.014276849 0.02093182
0.0012589181 -0.09741114 -0.016816627 0.058097508 0.043773443 -0.14719729 -0.04812698 -0.043715075
0.009594405 0.0069750384 -0.042808745 -0.07269077 0.03230657 0.0741783 -0.063694306 0.1595804
0.017411912 -0.07390192 -0.0131641505 0.011375775 0.011041534 0.074044 0.0040923534 0.013625098
0.08979181 -0.036379874 -0.066186585 -0.09275329 -0.07679474 -0.11676182 0.001536266 -0.089881375

linear1.bias f4 [200]
00000000: 2214 8e3e b96e 493e e98f 91bd cce7 283e
00000010: bb62 d7bd c84f 903d 55a7 a13e 4152 0e3e
00000020: bf74 823c b821 973d 2a93 573d cc7a da3c
00000030: 2eed cb3c e984 4a3e 57a6 5cbd db8b dc3d
00000040: a5a0 3f3e a0f5 6a3e 25e7 f03d de9c c7bd
00000050: ad3a edbc eb06 433e 25ce cabd c90b c8bd
00000060: ad00 1cbc 1e12 95bd 19cd 7d3e c2af aa3d
00000070: b5af ddbd 37ba 823d f197 12be e4b9 95bd
00000080: ebb3 993e 0ad6 c1bd d371 563e 0dac 57bd
00000090: 70b8 393e fb17 553e 5ab4 f73d 4a2d a4bd
000000a0: aade 143d a0e0 863d 4f37 2d3e 6910 743c
000000b0: 0e5e 81bd 6f70 a73d 24cb 5f3d 1e63 513d
000000c0: f7f0 ecbd e350 7e3d 93f9 e93d 65d6 37bd
000000d0: b32c 913e a9be 2b3f bc15 5a3e 35e9 413e
000000e0: 4d96 c7bd 3193 b03d da5c 0ebd 8382 733e
000000f0: ec23 123f 12ed d53d 54f5 babd c07c a73d
00000100: 8816 4d3d 8811 b1bd f738 1e3b 2d36 7b3e
00000110: e112 99bb 2005 b1bc 9f62 103f 3ed3 323e
00000120: bb62 91bc 6d8c ff3d b59f 293e 0519 843e
00000130: 5e11 a3bd 5325 213e 4c0b e9bd 4b9e 783b
00000140: 38d2 5f3e 7211 56bd c824 863e cd1c 883e
00000150: 2dcc c63d dbb6 43bd ecb4 9d3c ecc9 f3bb
00000160: f8f1 ae3d 3824 ef3c e8ba 003e 64f3 4abc
00000170: df89 ccbd cd05 16bd 4571 6c3e a5ea 883e
00000180: 303f 2b3e 9f9e bebd f39f 4abd 94e0 543d
00000190: 20cb 273e 05aa 8abd bc8c 8c3e 7364 c0bd
000001a0: 3a93 8bbd e3eb 6e3e e74b d8bd 2c45 363e
000001b0: ce11 653e ed79 473e 4fbc dbbd 23fc ac3e
000001c0: 0dd5 abbd cb86 d4bd 00b9 5cbd 2ff8 b1bd
000001d0: 0718 49bc 4d05 abbd 7e2a 9c3d a462 15bd
000001e0: 59b2 bd3d 8d99 953e 8895 ba3d fc51 603e
000001f0: fd2a 43bd 778d 2dbd c691 183e 10bd 303e
00000200: d524 eabb 570b d7bd 271a 29bc b3ad 9bbd
00000210: af5c a4bd 4ff1 3c3c fd03 793e c2d7 813e
00000220: a6d2 5d3c 6f62 943e 7477 88bd 73e6 60bc
00000230: 9d99 0d3e 9fa5 04bd 3314 b4bd 283c b93e
00000240: 71e8 6c3e dda9 893d 5474 553f 069f 593e
00000250: 4645 b2bd 1e26 b5bd 15e9 3d3e 656f 08bd
00000260: f2ca d3bd 6d92 89ba 0c7b 9f3e 21fc 4b3e
00000270: 17ff 193e e445 253e 44ce 403e c88c 1a3e
00000280: afec 493c 5d82 6c3e 1a83 e0bd d1aa 78bd
00000290: 60aa 363e c673 613e 3d55 953e 1855 c03d
000002a0: 01e1 c4bd 6ab5 debd 2e93 92bd 0a1e a7bd
000002b0: 2431 b0bd 57c6 bb3d 5012 dbbd 5098 a63c
000002c0: 6ed2 7fbd eb7d 833e caf8 373d 4712 f7bc
000002d0: 7c5e 3d3d 182b a4bd 304f 7d3e 7c48 78bd
000002e0: fd1f 0bbe 9239 92bc 9231 823e f20b 2bbd
000002f0: 4b1c 7a3e 8786 95bd ce0e f23d 7932 c7bd
00000300: ec56 f83c 3165 dd3d 6ef6 4e3e cac9 753e
00000310: 6189 9dbd 51af 163f b060 99bc 7f8c 993b
0.27749735 0.19671144 -0.07107527 0.16494673 -0.10516878 0.07046467 0.31572977 0.13898565
0.01592481 0.07379478 0.05263058 0.026669882 0.02489337 0.19777264 -0.05386957 0.10768863
0.18713625 0.22945261 0.11762837 -0.09746717 -0.028958643 0.19045608 -0.099026 -0.09767873
-0.0095216455 -0.07278846 0.2478527 0.083343044 -0.10824529 0.06383174 -0.14315774 -0.073108464
0.3002008 -0.09464653 0.20941858 -0.052654315 0.18136764 0.20809929 0.12094946 -0.08016451
0.03634516 0.065858126 0.1691563 0.014896491 -0.06316768 0.08175742 0.05463709 0.051119916
-0.11569398 0.06208886 0.11424556 -0.044882197 0.28354415 0.670878 0.21297354 0.18936618
-0.097454645 0.086218245 -0.03475652 0.23780255 0.5708606 0.10445608 -0.09128824 0.08178091
0.050070316 -0.08645922 0.002414284 0.24532385 -0.00467144 -0.02160889 0.56400484 0.17463395
-0.017747274 0.12477956 0.1656483 0.25800338 -0.07962297 0.15736894 -0.11379108 0.0037936147
0.21857536 -0.05226273 0.26199937 0.26584473 0.09706912 -0.047781806 0.01925131 -0.0074398424
0.085422456 0.029192075 0.12571299 -0.01238713 -0.09987234 -0.036626626 0.23090084 0.2674152
0.16723323 -0.09307598 -0.049468946 0.051971987 0.1638608 -0.0677071 0.27451122 -0.09394159
-0.068151906 0.23332171 -0.10561352 0.17799824 0.22370073 0.19480105 -0.107292764 0.33786115
-0.083902456 -0.10377272 -0.053887367 -0.086899154 -0.012273795 -0.083506204 0.07625292 -0.036471024
0.09262533 0.29218712 0.09110552 0.21906275 -0.04764842 -0.04237124 0.14899358 0.17259622
-0.007145504 -0.1050021 -0.010321177 -0.0760149 -0.080254905 0.011532142 0.24317928 0.25359923
0.013538992 0.2898135 -0.06663409 -0.013726818 0.1382813 -0.03238451 -0.08792915 0.36178708
0.23135544 0.06721852 0.8338063 0.21252069 -0.08704619 -0.08845161 0.18545945 -0.03330936
-0.10341443 -0.0010495909 0.31148565 0.19920398 0.15038715 0.16139942 0.18828684 0.15092766
0.012324496 0.23096605 -0.10962506 -0.06070978 0.1783843 0.2201682 0.29166594 0.0939123
-0.096132286 -0.10874446 -0.071569785 -0.08160026 -0.08603123 0.0916869 -0.10696852 0.0203363
-0.06245654 0.25682005 0.044914998 -0.030160083 0.046232685 -0.08016032 0.24737239 -0.060616
-0.13586421 -0.017849717 0.25428444 -0.04175944 0.24424855 -0.0730105 0.1181923 -0.09726424
0.030314885 0.10810316 0.20211193 0.24002758 -0.076922186 0.5886126 -0.018722862 0.004685938

linear2.weight f4 [3, 200]
00000000: 6733 b5bd fc5c 1dbe 5751 91be b63b 0cbe
00000010: db73 053d 3897 afbe 4aa2 d4be 6eb7 603d
00000020: d077 5cbe 7abe 76be ab96 233e 959f d53d
00000030: d562 113e a516 c3bd a5fc 173e 7fd4 a7be
00000040: 24d4 27be 63c5 9abd cad2 46bd 415c 563d
00000050: 2fe1 26be 9420 f0bd 3a0f 0b3e a0bc 7e3d
00000060: 52b0 9d3d 44c3 063e 0a48 44be a4d7 173e
00000070: c52a fa3d a22a e2be 5776 243e 8c5a 6dbe
00000080: d29d 25be 19e0 babd 309f b3be 5b1b 453e
00000090: 38cf 30be e7e4 53be 3c5e 043e cbd3 d43d
000000a0: 172e 4a3e d697 a83c 284f e53d 9c60 153e
000000b0: c3c7 f83d e871 463e adf3 583e 04b9 003e
000000c0: 7a5a fc3d c850 9d3d 3513 423e 94d2 6a3e
000000d0: 7e33 71be 5e3a 41bf 75aa 113e 4bbb 4ebe
000000e0: 3bca 6dbe ff38 d5be 2736 a03e 185d 63be
000000f0: dc88 27bf 1670 62be e9e6 ab3d 8641 a3be
00000100: c90f f83d c226 033e 6c1f 83be 8997 12be
00000110: f1da 35be 92e9 98be dab2 2bbf 91c5 cc3e
00000120: 6d64 213e d70c 313e f1f5 3abe 444e 28be
00000130: aaad 33be 1644 353e 959a d33d cde1 313e
00000140: 3908 05be a0cb be3d 21aa 64be a286 dd3d
00000150: 6602 84be c5f8 4c3e 2822 743e 25eb 36be
00000160: b1be 3f3e 85c8 e9be 31d8 65be 758b 47be
00000170: e2c9 d83c ada9 8f3d 9b97 e6bd fbda 86be
00000180: 2ea2 c6bd ca24 023e a3bf 313e 5c66 353e
00000190: b8fe 4fbe e312 a5be ac3b ffbd 1fec c23d
000001a0: 165e eabd 866b 48be 413c 583d 9890 9f3c
000001b0: 6f89 4fbe 284e 81be 1da2 23bd 2584 96be
000001c0: 9743 d43c b968 323d e958 e9be 84ce ab3d
000001d0: 9228 653e 7f19 3a3e 5ab8 10bf 9d74 823e
000001e0: ee79 143e 8b8e 96be cdf4 14bd 28cb 49be
000001f0: fe18 3a3e 0a3f 353e fd13 fbbd 7350 fabd
00000200: ca08 a3be 8640 9a3c b5ed 80be d221 593e
00000210: e880 3f3e 9e15 443e 31cc c43d 5764 32be
00000220: b1ce 7e3e 64c0 2abe 4c60 783e dcbb 3e3e
00000230: a527 a23d 3d5e bdbe df9c d83d 6687 8bbe
00000240: 7aa5 253d 253b 1bbf 1ba6 3dbf ac7b 5bbe
00000250: 0dd6 953d c70d 4d3e 98e1 0bbe 1911 cfbe
00000260: 9bc2 5f3c cae4 f33d 51cd 67be e1f8 123e
00000270: f5f0 36be 8d74 e2bd f4c1 f3bd d8c3 d1bd
00000280: cd06 603e 5975 32be a1cd adbc 6e42 453e
00000290: d3d0 fc3c a0fe 4cbe 2f61 4cbe 9864 87be
000002a0: e0c3 033d 5d30 963d da17 393e 767b f13d
000002b0: 68c6 5f3e b042 813d 2346 3dbd a6f8 ccbe
000002c0: f467 afbd 17ba 2ebe 9226 a93d 9585 3f3e
000002d0: db98 2ebe 186a d13d e0ba 5bbe f7b8 8dbd
000002e0: 63a0 fc3d d2d6 d8be da51 10be 51e4 cabd
000002f0: f50e 3cbe abc7 a23d 6de6 5bbe aebf 1f3e
00000300: 73ff cfbe 7d94 6ebe c60f 94be 63d9 f2bd
00000310: 2cf7 1b3e 6dfd 34bf 93a7 843e eeee 89be
00000320: 9a47 443e 43b9 b93d d33c d1be 5ea2 1d3e
00000330: fc34 afbd 2a39 81bc f219 bb3e f664 793d
00000340: c050 d1bc 9332 253d d783 533d 87ac 003e
00000350: 3412 e43d 776e 0b3e a06a 48be 5398 023d
00000360: 9bc0 ed3d a322 813e 15c7 263e 76fa b1bd
00000370: 9dfa ebbd 923e 323e 44fa d7bd 7919 0cbe
00000380: ec38 dc3d 6112 f8bd a5f2 ba3d 2c5a c63d
00000390: d1e5 29be 8b9e 71be 4342 d6be 2873 2bbe
000003a0: d77a ae3d 468f 13be dec3 ef3d 940f 4bbe
000003b0: 73b0 953e 1d4a d83d 6976 d53d 3487 3abe
000003c0: aea6 9a3b 81f7 913e f3bc 123e 1e01 423d
000003d0: d882 51be 232a 9d3d 2db0 103d 2318 f63d
000003e0: f49e afbd a103 593d cfb1 893d 8769 72be
000003f0: b442 8c3e 37a0 9a3f c4d6 0d3e 6b7b 1d3e
-0.08847695 -0.15367502 -0.2838237 -0.13694653 0.03258119 -0.34295058 -0.41530067 0.054862432
-0.2153008 -0.24096099 0.15975444 0.104308285 0.14197858 -0.095258035 0.1484247 -0.3277931
-0.16389519 -0.0755718 -0.048540868 0.052334074 -0.16296838 -0.11724964 0.13580027 0.062191606
0.07699646 0.13160425 -0.19168106 0.14828354 0.12215189 -0.4417315 0.16060768 -0.23179072
-0.16173485 -0.091247745 -0.35082388 0.19248717 -0.17266548 -0.20692788 0.12926573 0.10391959
0.19744144 0.020580214 0.111967385 0.14587635 0.121474765 0.1937939 0.21186705 0.12570578
0.123219445 0.076814234 0.1895264 0.22931892 -0.23554799 -0.75479686 0.1422518 -0.20188634
-0.23221676 -0.41645047 0.31291315 -0.22203481 -0.65443206 -0.2211307 0.08393652 -0.31885928
0.12112386 0.12807754 -0.2560991 -0.14315619 -0.17759301 -0.298657 -0.6706978 0.3999448
0.15760966 0.17290054 -0.18257882 -0.16436106 -0.17546716 0.17701754 0.103322186 0.17371292
-0.12991418 0.09316182 -0.22330524 0.10816695 -0.2578308 0.20016773 0.23841155 -0.17863138
0.18725087 -0.45660797 -0.22445752 -0.19486792 0.026463453 0.07014785 -0.11259385 -0.26338944
-0.09698902 0.12709346 0.1735826 0.17714828 -0.20312011 -0.32240972 -0.124625534 0.09517693
-0.11443727 -0.19572267 0.052791838 0.019478127 -0.2026727 -0.2525494 -0.039949525 -0.29397693
0.025911136 0.043556903 -0.45575646 0.08388999 0.22378758 0.18173788 -0.565313 0.25479594
0.14499637 -0.29405627 -0.036366273 -0.19706404 0.18173596 0.17699829 -0.12259672 -0.12222376
-0.31842643 0.018829595 -0.25181356 0.21204308 0.18701518 0.19148871 0.09609259 -0.17421089
0.24883534 -0.16674954 0.24255484 0.1862635 0.07917718 -0.3698596 0.10576796 -0.27251738
0.040441014 -0.6063712 -0.7408158 -0.21433896 0.073162176 0.20024787 -0.13660276 -0.40442732
0.013657237 0.119088724 -0.22636916 0.14352752 -0.17865355 -0.110573865 -0.11902228 -0.10242432
0.21877594 -0.17427577 -0.021216216 0.19263622 0.030861294 -0.20019007 -0.19958948 -0.26443934
0.032169223 0.07333443 0.18075505 0.117911264 0.2185303 0.06311548 -0.046209466 -0.40033454
-0.08564749 -0.17063175 0.0825931 0.18703301 -0.17050497 0.10225314 -0.21458006 -0.06920045
0.12335279 -0.42351395 -0.14093724 -0.09906829 -0.1836508 0.0794824 -0.21474619 0.15600464
-0.4062458 -0.23298831 -0.28918284 -0.118578695 0.15231007 -0.706992 0.259091 -0.269401
0.19167939 0.09068539 -0.40866718 0.1539397 -0.08555028 -0.015774328 0.36543232 0.0608873
-0.0255512 0.040331434 0.051639404 0.12565814 0.111362845 0.13616358 -0.19571924 0.03188355
0.11609002 0.25221738 0.16286881 -0.0869035 -0.1152241 0.17406681 -0.10545781 -0.13681592
0.107530445 -0.121128805 0.09128312 0.09685168 -0.16591574 -0.23595636 -0.4184743 -0.16743147
0.085195236 -0.14410123 0.117072806 -0.19830161 0.29236183 0.10561011 0.104229756 -0.18215638
0.004719577 0.28509143 0.14329891 0.047364347 -0.20460069 0.076740526 0.035324264 0.120163225
-0.0857524 0.052981976 0.067233674 -0.23673068 0.2739464 1.2080144 0.13851458 0.15379111

linear2.bias f4 [3]
00000000: fd9f 86bd 0898 513e 26a8 d7bc
-0.06573484 0.20468152 -0.026325297
